code/baselines/saved/best_model.pt (torch, 269225 bytes, 20 tensors)

weight f8 [64, 36]
0.1554824090890725 -0.1404311372659474 0.08016895321554565 0.1257965639305169 -0.0027493754951645874 -0.15341790534827698 0.04386268133634485 -0.04985707895456574
0.1290515560958091 -0.13393201683476536 0.07500159373966088 -0.002596050324872901 -0.033684010529307515 0.08119512889060275 0.16311761306289543 -0.056352085631919326
0.04199577815956963 0.05937619549750795 -0.07839251943124606 -0.12725263893741082 0.07701500736322989 0.01661728170765789 -0.13436967275585623 -0.13498661281783572
0.09733278367806023 -0.0026298157863771858 0.1601155386323275 -0.1474682254791343 -0.036672275751969505 0.1724302583399046 -0.09334162490111218 0.14546103569480806
-0.034469434878672406 -0.02350380209750326 -0.00801445692126368 -0.030077557613588383 0.047389087839093735 -0.10538192143090698 0.16116598189367276 -0.025585521502756597
-0.14983975077557152 -0.1457014961031597 -0.10930658795528804 0.13698310551538925 -0.1312159996756154 -0.007051971822967152 0.11501765252259703 0.06925000367038756
-0.05696798865513632 -0.008085923547312775 0.04875012715825052 0.06653825061558438 0.12431584280475931 -0.060567442722951996 0.10009780620169535 0.11238363499889538
0.12649125524540786 0.07686064682693827 0.06198502589479135 -0.014840069665433575 -0.06979754999525627 0.07696987914585479 0.1390307091210507 -0.12932977627266304
-0.09190422738963652 -0.13191322041841605 -0.012806246896584179 -0.09500755884830984 -0.12226395188197213 -0.11216710030272947 -0.06252715483248665 -0.058684179562263954
0.0724846665692843 -0.025446301114636673 0.016613803397214834 -0.10877376768496236 0.03431305727462792 0.0317509057193226 -0.08571231151931458 -0.06393612816570715
-0.06718007240452964 -0.12305783937263971 0.11758841203380539 -0.12262067566339688 0.1589134834262507 0.16643122671429816 -0.14190468105322085 0.113786811686684
-0.1090068997440143 0.15832742714811668 -0.008269351505932858 0.053295300469355565 0.004204684891474185 -0.06800804149227287 -0.08975674621404447 0.13403741547330303
0.06223954311895046 -0.05385961626707366 0.17145108921085164 0.12309087324424739 0.11645358247979795 -0.14392426555171828 0.07387153393329209 0.018781982400875648
-0.021142211587804043 0.13449309530149356 0.17176089734439345 0.1610750266159348 0.1445751725107113 0.08269511675242426 0.13293298210124332 0.0425025817042079
-0.12449893918434922 -0.11885328355040216 0.11058541241729491 0.08220024723182773 -0.0674587546418334 0.04940012605716239 0.11605339823283153 0.08282044546203136
-0.01012442365108105 -0.09040298794377899 -0.06406433160552884 -0.12577210968980815 -0.07598263121175623 0.15114125524306302 -0.12876940700634132 0.0676341838950332
0.06652019808375469 0.057337790870475316 -0.07259911889198141 0.14911066389540975 0.14503568163683747 0.011554918536884397 -0.12589546465563112 -0.03378082644661118
0.0838391777130574 -0.12215196295674592 0.06074893198450763 -0.1894008414001035 -0.010837009345583612 0.11278683000289964 -0.0987731430024886 0.11439827943872688
0.12210902703965895 -0.002732879917599336 -0.16229828369722824 -0.10110679765932958 0.16413732336499473 0.12206633038200945 -0.14630901056776882 -0.13280785575910947
-0.027851093329886147 0.060587179706291315 -0.11210412763368338 0.12856396340370252 0.10664736507241662 -0.051805618903826844 -0.12215452545171888 -0.1512496579697247
-0.179051871611749 -0.0561962145673764 -0.15366661387361658 0.08242443408526437 -0.026718552593975233 -0.15571506469902224 0.15136525928621572 -0.06285341320589302
0.09480258443765159 0.15637719211281056 -0.023994368407676988 0.015257328174108341 -0.0012124586980410547 -0.06762388222902338 -0.0767059571390141 -0.00834309956693364
0.042099618700522055 0.0021287739254028377 -0.023999151025468794 0.07621777730737615 0.06199961080129412 0.0910037265857583 -0.058545879644057906 -0.10729579500474813
-0.09935673089972676 -0.10427994595728687 -0.04072079182229218 -0.10798763010350895 0.003159363094893976 0.07412022176690945 -0.030143636012264795 -0.047701088388601556
0.11356052549806336 -0.13030810153143554 0.03992841461251517 -0.045116457939406746 0.08488255001913864 0.15688090393859408 0.06792283365791067 -0.022236849479791616
0.10470851859684223 -0.14746036340608004 0.1357310117545659 6.375058411993396e-05 0.05704416945792068 -0.06046118669389865 0.03255468239862895 -0.1786715080147221
0.015925090873158125 0.032335452499468766 0.08366173639481281 -0.002906079930183764 0.014296831560425214 0.08776463083513876 0.08035221403057018 0.16718539917704012
-0.06514115801801419 0.012396924398813505 0.0992517854181237 0.012082733916377535 -0.15474322500827745 -0.12267624242691615 0.16048385277949684 0.05269588652481903
-0.021072941242184597 0.11245337273878624 -0.12693402981969282 -0.06917371568492599 -0.033624989814069826 0.06508103008402193 0.0024955683446873955 0.028127792871310113
-0.014094128959455905 0.050527483138765567 0.07937595686799576 0.03366180592014684 -0.13670752902034064 0.057954757753383636 -0.03809184744677485 -0.11851110052946534
0.13715495776088538 0.1018800630256195 -0.08918739290609763 0.14136344752238392 -0.09179350685315342 -0.07395680238357556 0.11096609236605506 0.009593127101090343
0.06560202091480673 -0.0279421383682754 -0.14165562375546858 -0.14444658690896878 -0.16120156323839124 -0.031158832521323773 0.16786595267538623 -0.016726738513035067
00000000: af07 12fb d8e6 c33f bddb f2c2 a5f9 c1bf
00000010: 621f 37d8 f385 b43f 66ef 0310 1a1a c03f
00000020: 9ec9 c1ba db85 66bf f2bb 0bab 32a3 c3bf
00000030: 2f7d b55b 2b75 a63f 75fb 2af7 dd86 a9bf
00000040: e4f6 76ea c284 c03f 62a8 1830 af24 c1bf
00000050: 217d 42f0 4d33 b33f 4ea9 cfe7 4f44 65bf
00000060: a634 3ed7 073f a1bf 1ffd 2d37 34c9 b43f
00000070: 25dc c0b6 09e1 c43f c572 b339 2eda acbf
00000080: 7ae5 877b 7880 a53f d138 a583 8e66 ae3f
00000090: a24f 353b 8811 b4bf 9d6e 4881 d049 c0bf
000000a0: 2220 ed69 41b7 b33f a965 eee5 1e04 913f
000000b0: 8dc2 0783 0633 c1bf 53a7 b9c7 3d47 c1bf
000000c0: 52d5 b922 cdea b83f affa 8099 1f8b 65bf
000000d0: 43ee 007d aa7e c43f 8ce6 d022 3de0 c2bf
000000e0: be98 0c62 b5c6 a2bf 8692 34d8 3112 c63f
000000f0: 5747 4e9a 3ce5 b7bf 0064 939b 779e c23f
00000100: 94ef 074f faa5 a1bf 649a 5c75 6111 98bf
00000110: 00ea f932 e269 80bf d1f8 2cb9 a6cc 9ebf
00000120: 4890 e9ec 6143 a83f b9a8 2242 4ffa babf
00000130: c603 bb3e 16a1 c43f 9bf9 6b48 1733 9abf
00000140: 3f66 9cee f22d c3bf 4ee4 5ebc 58a6 c2bf
00000150: f95b 813c 84fb bbbf c384 2593 a988 c13f
00000160: a5cb a895 afcb c0bf 1a9e a145 87e2 7cbf
00000170: 5318 0c00 cc71 bd3f 2e1f 0345 5eba b13f
00000180: d2aa 6280 e82a adbf 11a0 8c49 5a8f 80bf
00000190: 2b1c a4d3 c6f5 a83f 68b5 539a a608 b13f
000001a0: 339b 38bf 29d3 bf3f cf15 6523 b202 afbf
000001b0: f5a1 0984 02a0 b93f f104 ed84 2cc5 bc3f
000001c0: 6927 418e dd30 c03f 689a 78ac 23ad b33f
000001d0: 9ca3 1e56 80bc af3f 6d33 116f 7864 8ebf
000001e0: 9b0f 9292 40de b1bf 7c61 b549 4cb4 b33f
000001f0: de44 681e c2cb c13f 17bb becb e08d c0bf
00000200: c6ac 0013 0987 b7bf a5b6 cd4b 88e2 c0bf
00000210: 8ab7 d75c 293a 8abf 4b54 2056 6a52 b8bf
00000220: df12 d0ba b04c bfbf 98c4 7cab fbb6 bcbf
00000230: c311 1e95 c701 b0bf 6768 0650 da0b aebf
00000240: f764 60e8 5a8e b23f caba 5d5c 980e 9abf
00000250: da49 0379 3503 913f 169f defe 98d8 bbbf
00000260: 99fe a325 7b91 a13f 20a1 5d9b a741 a03f
00000270: 900b d7f6 3df1 b5bf f02b 813b 1e5e b0bf
00000280: 2a9d eb95 b632 b1bf 6935 9ff3 b780 bfbf
00000290: 65e2 1230 461a be3f 8aa7 c98f 1164 bfbf
000002a0: 91c6 1aeb 4657 c43f 7eb2 e251 9e4d c53f
000002b0: 34ee 22be ee29 c2bf 2e11 e9ea 2121 bd3f
000002c0: 3d5b 704d e0e7 bbbf 1d9b d4b8 1244 c43f
000002d0: 6f85 3792 85ef 80bf 8bbe 1789 8549 ab3f
000002e0: 7ef5 9481 ee38 713f d506 139a f968 b1bf
000002f0: 6eae 9551 4cfa b6bf 3ff8 f255 2328 c13f
00000300: e780 6d84 dcdd af3f db66 e2d4 7c93 abbf
00000310: 8918 83fa 1bf2 c53f d826 052b e282 bf3f
00000320: 96b5 40e8 e6cf bd3f 169e d23e 1c6c c2bf
00000330: d34d 59ae 3ee9 b23f b2c9 a980 953b 933f
00000340: 9ec3 56cd 4da6 95bf f8c9 edda 1137 c13f
00000350: 43b3 69d6 42fc c53f 4646 c241 1b9e c43f
00000360: c59f df72 7081 c23f 9995 fdd5 812b b53f
00000370: c2a0 57ad f203 c13f 588d d4fc e5c2 a53f
00000380: 13f8 2e98 29df bfbf 7106 df35 2b6d bebf
00000390: 6038 bf59 534f bc3f e074 954d 130b b53f
000003a0: eafb 0319 fa44 b1bf 82e6 aa2b f94a a93f
000003b0: beea ffed acb5 bd3f 6f17 b380 b833 b53f
000003c0: d426 c723 1dbc 84bf e8e0 ad74 a624 b7bf
000003d0: f9f9 1521 8566 b0bf 69ee eeec 4c19 c0bf
000003e0: 7357 1e04 9973 b3bf 3d34 2cbe 9858 c33f
000003f0: 74a5 e813 847b c0bf b2ba eb4f 7950 b13f
00000400: 130d 4bbb 7707 b13f 0227 3a01 615b ad3f
00000410: 9d06 5c19 db95 b2bf 7533 75e8 0e16 c33f
00000420: 790f b17a 8790 c23f 8178 cae9 1aaa 873f
00000430: 7e90 b4b3 571d c0bf 30dd a371 b84b a1bf
00000440: 62af 66fe 7b76 b53f f99a 0ade 5945 bfbf
00000450: 05e1 47e8 7b1a af3f 64fc d269 493e c8bf
00000460: 784a cec5 b631 86bf e52e 4802 99df bc3f
00000470: c637 eb5a 3249 b9bf c472 e8a4 3449 bd3f
00000480: de84 ae85 8942 bf3f 5de9 d6bb 4363 66bf
00000490: 6198 56ae 30c6 c4bf cda0 5995 22e2 b9bf
000004a0: a7eb f3a9 7302 c53f 5af7 ee30 bd3f bf3f
000004b0: edd4 bfef 40ba c2bf c091 910a d9ff c0bf
000004c0: 0af0 093c ff84 9cbf 5b71 ca66 4805 af3f
000004d0: 70eb ee29 dbb2 bcbf 66ab 21b1 c874 c03f
000004e0: 4ccb 30e1 3d4d bb3f 90c7 e11d 4486 aabf
000004f0: cf9f dfdb 8445 bfbf 796d 4117 265c c3bf
00000500: 3516 6ef6 2beb c6bf 99a6 730f c0c5 acbf
00000510: cc80 89fc 58ab c3bf ca9a c988 c419 b53f
00000520: 77ae 59b6 1b5c 9bbf ca3b 30a3 78ee c3bf
00000530: fd42 31d3 ef5f c33f fa49 294a 2917 b0bf
00000540: fb69 bc6f fb44 b83f 917f fbf6 2a04 c43f
00000550: 1f87 65ce fa91 98bf d9cf 41ec 3b3f 8f3f
00000560: 3e6f 2c9d 6bdd 53bf 802a 9a7a cc4f b1bf
00000570: 9208 5269 00a3 b3bf a54a 4cde 2f16 81bf
00000580: e351 fcca 148e a53f 7f60 7ccc 5c70 613f
00000590: 6105 25c3 3b93 98bf abb3 e81c 0283 b33f
000005a0: ff37 83b9 69be af3f 39fd 7f2d 054c b73f
000005b0: 2308 c6bc b9f9 adbf cd30 8bba bc77 bbbf
000005c0: 810f da55 716f b9bf cae3 832d 17b2 babf
000005d0: 53b6 490a 5bd9 a4bf 1ec8 aacb 13a5 bbbf
000005e0: 3779 6625 aae1 693f 7f0d 76f8 8af9 b23f
000005f0: e6ba 6b2b f9dd 9ebf 22ad 39ed 466c a8bf
00000600: 3e79 2177 4d12 bd3f 4f9d 3d95 efad c0bf
00000610: 403e e245 7f71 a43f 9ce3 b81e 8119 a7bf
00000620: 2452 55e0 dcba b53f 373f e467 ac14 c43f
00000630: 2b5e 360d 6463 b13f d58a 20b5 41c5 96bf
00000640: 756d fc6e 2dce ba3f a087 242f fbdf c2bf
00000650: 1bf9 4440 a25f c13f e8cb 11b2 3ab6 103f
00000660: e09d 7fb4 e434 ad3f 7e27 0ec7 c4f4 aebf
00000670: c6b1 77e0 01ab a03f d83a d33d b5de c6bf
00000680: 0eb5 f1c1 aa4e 903f fd20 f9bd 458e a03f
00000690: fa06 be05 db6a b53f f478 4fc8 7dce 67bf
000006a0: df56 e83f a847 8d3f 01b4 2e2b be77 b63f
000006b0: 6328 6c73 f691 b43f 8cc3 eac6 5466 c53f
000006c0: b599 4f47 17ad b0bf 5b3e e906 8f63 893f
000006d0: 65c1 70a4 9068 b93f 5c0b 2318 d5be 883f
000006e0: 5914 5841 a0ce c3bf 0343 38d1 b567 bfbf
000006f0: 9cac 9c21 bc8a c43f 9e01 848a f4fa aa3f
00000700: bae3 dc25 2594 95bf 93ec 3c86 bec9 bc3f
00000710: e09b 69d1 5f3f c0bf 150c 9c5e 5eb5 b1bf
00000720: b3d6 286f 4b37 a1bf 9305 cd7f 26a9 b03f
00000730: 8597 9c0d 9671 643f aeb8 f639 88cd 9c3f
00000740: aa5e 92f7 61dd 8cbf 34a8 42ff bcde a93f
00000750: 2435 d692 fb51 b43f e847 1ac7 1e3c a13f
00000760: db31 21df a17f c1bf bd92 65fa 3eac ad3f
00000770: a065 0e4e c680 a3bf 78ad fc54 be56 bebf
00000780: 1c9c 082d 4b8e c13f 6a38 cfd2 cf14 ba3f
00000790: f547 bf27 fcd4 b6bf 87ae fa8b 3218 c23f
000007a0: cd60 eb7d c77f b7bf 85df 8d3f d5ee b2bf
000007b0: da57 ad19 4668 bc3f 230e 53b9 8fa5 833f
000007c0: 316f 6146 4bcb b03f fc60 e329 dd9c 9cbf
000007d0: fc7f a97f c521 c2bf de7b 65cb 397d c2bf
000007e0: c223 16b9 40a2 c4bf 5c7b a4da 19e8 9fbf
000007f0: 3624 6dac a17c c53f 1d67 876b d020 91bf

bias f8 [64]
-0.16823344500328047 -0.09267732210114926 0.021738450555345814 -0.056091406802815776 -0.1722185952598917 0.0063936558206450275 0.15189439220217582 0.17781309529412087
-0.004837760638464377 -0.12400144346380311 -0.12134525100166522 0.08080735890625808 0.16875325086609821 0.09397656705814547 -0.009851142899477357 0.14359308507728258
-0.13277728632360783 -0.08599048885139259 0.08499918751074681 0.07469650017837216 -0.013735598477936616 0.12001405089703819 -0.023088232987906816 0.013477447358072278
0.17149593165244367 0.15309075945686954 0.18938237893501228 -0.17815210324013875 0.1023654593347197 -0.11774214374706297 0.060244105934129134 -0.07606628169740895
0.1510438257681071 -0.02474982902050639 0.0892070737525319 -0.08377103615240128 -0.14786298077675794 0.08893350975539943 0.09444262096506008 0.08261290118036141
0.0570598288224657 0.16549265305419972 0.1389331151280792 -0.13042167712448682 0.0019505485057510923 0.04609651404851075 -0.09586844253649447 0.14033717277478425
-0.12134403090115076 -0.09155910632888055 -0.09835006099781932 0.15742099229164855 -0.08021659438242523 0.11266266313745922 0.09836625584901734 -0.11543558334061688
0.009910645341295736 -0.12648667724675233 -0.0730389908585845 -0.07284020456038487 0.04154430710263188 0.044260014854270745 -0.12093512133403658 -0.08941930266145676
00000000: e6f5 306c ac88 c5bf f45a 8173 b3b9 b7bf
00000010: d7be cdb8 9a42 963f 0105 9c4b 03b8 acbf
00000020: f4bf 3349 420b c6bf 26c0 6cea 3b30 7a3f
00000030: 5821 7a83 4671 c33f 2a5d 8b5a 94c2 c63f
00000040: d237 a67b c2d0 73bf b575 5500 8fbe bfbf
00000050: 6dba 937c 7b10 bfbf 9d4c c783 caaf b43f
00000060: 3e23 c8de b499 c53f e6e6 1a2a d90e b83f
00000070: dedd a604 d62c 84bf ae59 2b1a 4261 c23f
00000080: cfac 349b d8fe c0bf a73f 6201 7903 b6bf
00000090: 2494 8bba 81c2 b53f d14a 6451 4f1f b33f
000000a0: 0ca1 07d2 6821 8cbf 4fcb a9a7 3db9 be3f
000000b0: 1505 6c16 71a4 97bf e583 175d 109a 8b3f
000000c0: eb11 ec24 94f3 c53f 7ff1 975e 7a98 c33f
000000d0: 9b76 fb89 ae3d c83f 38a4 9028 b0cd c6bf
000000e0: d527 156c 9f34 ba3f 432b c160 5924 bebf
000000f0: 9516 87c1 50d8 ae3f 62fc 3770 1479 b3bf
00000100: 2ae7 f771 6755 c33f 040f e6e8 0458 99bf
00000110: b0c7 5658 46d6 b63f ac68 a0c4 0472 b5bf
00000120: 0fd5 5c95 2ced c2bf f4fd eab3 58c4 b63f
00000130: 99b9 6440 642d b83f f41d cc7c 1e26 b53f
00000140: 1a6b 6a25 f236 ad3f c54b 4cfe dc2e c53f
00000150: 7e3b e770 8fc8 c13f d035 f852 a8b1 c0bf
00000160: ca52 a782 31f5 5f3f fb8d 9858 f699 a73f
00000170: a5a6 6991 d58a b8bf da8a bd87 91f6 c13f
00000180: 8806 4904 6710 bfbf 2162 55e7 6a70 b7bf
00000190: ca94 8b37 782d b9bf 115a ccfe 5e26 c43f
000001a0: 4811 7821 1389 b4bf d1d8 a7d5 75d7 bc3f
000001b0: 96c8 e6eb 872e b93f 201d 3eb7 2f8d bdbf
000001c0: 4f26 fc4c 084c 843f f0c6 1327 b730 c0bf
000001d0: e309 12ed aeb2 b2bf c0b9 6bd8 a7a5 b2bf
000001e0: 4c7b aea0 4b45 a53f 4b9e a3a8 3fa9 a63f
000001f0: 4e46 11a7 9af5 bebf a4e4 8ff4 2ee4 b6bf

in_proj_weight f8 [192, 64]
0.026043376451483854 -0.03839898766559822 -0.08585253725747138 -0.0428949948629162 0.014130743118593084 -0.06548668700449989 -0.1298950896648621 -0.10851769308209917
0.09546935434387714 0.02517729423997691 -0.05955513400954362 -0.10167051293683013 0.03498339427764591 0.03007823443012414 -0.0009977362702845707 -0.13381089515790903
0.09160372520015006 0.03904733129830049 -0.12486440341610466 -0.1315522781462646 -0.10466865757607426 0.04701727961392174 -0.001542351186500521 0.025938087851029797
0.005804342378407918 0.11386034265789428 0.12196491691247921 -0.04863947935357767 0.13039289834841222 -0.03397835440038426 -0.00842379037139771 -0.022610706915792252
-0.05763327532279368 -0.10887663219388376 -0.13041052539199358 0.027930745009766965 -0.13830983139248107 -0.04320476277784283 0.12861451470459806 -0.15532102242544996
0.08861872698567039 -0.03645460456109054 -0.14755086864669797 0.11426482058526641 -0.03148468924998 0.010190942254943084 0.0032794116562169474 -0.07062769086393766
-0.0406258968875734 -0.015502945734897536 0.1100469009962644 -0.12775403743970365 -0.1645149753159148 0.06173824060656494 0.022729675076506226 0.07853642678578002
-0.07312016598501085 -0.05302277709374347 0.027053985851777675 -0.021140985877996475 0.054316344567062934 0.06497419001481171 -0.050768262853399145 -0.04741435566370642
0.09776187649378416 0.1269762797765555 0.0005520067418270558 -0.07543967404105596 -0.14026861970122959 -0.11855024234929261 -0.11751335159266768 0.1581953724445271
-0.12318999688864068 0.03984565292510324 0.060576909541443485 0.04555641168050295 -0.0580085718788151 0.13903565995354852 0.1257047081983685 -0.14071341323700443
0.11548979081290925 -0.0838456585716644 -0.03675973422072913 -0.06580042830061861 -0.08507014853841384 -0.09664182419184744 0.07968633295188632 -0.04200114960518581
-0.04915667900546314 0.07752020752223433 -0.09859067197313277 -0.003320116481275734 -0.14536503587880792 0.07005666492800992 0.1486129466802924 -0.08924830283566579
-0.15819558887580948 0.02333882546659485 -0.05963593051649142 0.08387327963474088 0.10194204635077975 0.020890192865075295 0.01624115249648454 -0.11181358387845854
-0.15561793970630375 0.061199843206556075 0.031162994331161736 0.15336177615467061 -0.1688673127236288 -0.04913469338827816 -0.11740791092085501 -0.0647258703436965
0.04274721261354121 -0.04178617317615531 -0.01308070384934281 0.020443699297604218 0.15904325043307585 0.15815631458832996 -0.04951828467719032 0.044157142737164964
-0.1549056071545781 -0.04325541300905069 -0.06155216154774058 0.13685741635331888 -0.0929367538096518 -0.022655342361366206 0.009443495583848356 -0.09261133507297317
-0.07334244021421389 -0.06976366163936917 -0.12079653288051169 -0.03692995600263328 -0.10374895819559564 -0.09999460414649294 -0.13763952716395192 -0.08656863857160711
-0.05543506601019958 0.04244418852061513 -0.13048510193846127 0.0759772188165736 -0.029685832812191063 -0.07630223718500721 -0.08463777030599685 -0.058260300829922736
-0.00524631679957021 -0.09450969650188558 -0.08328914271117868 0.03502009811990696 -0.01854336336421954 -0.14695761798230542 0.06345760643110673 -0.07893256623681201
0.13616409280073372 -0.0379379291753465 -0.1580457238849057 0.052657748780631036 -0.06117800532362357 0.01840380716841768 0.04369727975288525 -0.08811779570968215
-0.15049178805264124 0.1545713039482054 -0.016754391420448683 0.10828708768424901 0.05127111990582478 -0.051165581548286425 -0.0799216131795271 0.018293229858957573
-0.00037883124672471156 -0.03648407098332956 -0.013869240569479508 0.11503307364520961 0.06098222224036273 -0.05605303632360642 0.014025708716009899 -0.11196088937525119
-0.14390477178185873 -0.02360876825966071 0.030893008903884533 0.09749247158296251 -0.02364135143828875 0.0038550901602989827 0.03569395594416581 -0.003029304413129057
-0.13760796056150013 -0.0750858416413426 0.07486135136666189 -0.054362747339349336 0.07799584167569026 0.06529154378279906 -0.10236796005644576 0.11459788997710901
-0.14166577339432956 0.10482631588757399 0.12319172604442682 -0.06154561844127292 -0.0477023284852561 0.08136902325988495 -0.04033605651479914 0.08613709433838394
-0.1518639614207074 -0.11898323100001068 0.14358878300626865 -0.09926991508638808 0.10069349019666934 -0.13934897510373184 0.14797191787469535 -0.04378315212427353
-0.1481112597084689 -0.12323525192155108 -0.006367389544487821 -0.07775753628832867 0.13061062162746367 -0.14191078574936333 -0.011591031783629654 0.05177949393173129
-0.12044261559626612 0.029496360340077143 0.09736885550283518 0.05599654744922414 0.06566226635783488 -0.10808547614234752 0.08620858973377545 -0.04959828592047084
0.015395244783519795 -0.08047382093381822 0.14990152242072463 -0.061346839764691415 0.12582548126471899 0.037611782073368245 0.1391179376569537 -0.1397659060407867
0.05652949568941825 -0.023930197103391768 -0.04027462601612193 -0.14906367510245166 0.1208718930116711 0.13638315968478812 0.14662294488608002 -0.04706637789134848
-0.06839038997682802 -0.10523676777983854 0.0823468000456096 0.11792734132436905 0.11303376977584133 -0.12707086964948527 0.09458553679612568 -0.09055962458251236
0.12490568120077547 0.0042560408198203115 -0.04112584295262544 0.050927691705719966 0.06240437398108919 -0.05856925557905984 0.10685348181455552 0.09864920815433625
00000000: 0fd1 8b68 1dab 9a3f 0d4e 7238 08a9 a3bf
00000010: 7ca9 cc8f 6efa b5bf 1856 3230 55f6 a5bf
00000020: 0212 803c 94f0 8c3f a0f9 014b bcc3 b0bf
00000030: d1c2 02fd 66a0 c0bf fb31 d3c6 d0c7 bbbf
00000040: 2f5c adfa ad70 b83f 562b 739d 13c8 993f
00000050: 9380 c2b1 027e aebf b6fe 0728 1407 babf
00000060: 28b0 a6ec 57e9 a13f 6093 cb24 d4cc 9e3f
00000070: 7c6e a829 cf58 50bf 3d9e 4625 b720 c1bf
00000080: 9229 ed7b 5773 b73f cd34 d805 03fe a33f
00000090: 0452 1b11 1df7 bfbf c91e 2d7e b4d6 c0bf
000000a0: 2199 34ad 90cb babf 0cce 931c a612 a83f
000000b0: c1f8 eaf9 1645 59bf 3fee 299c 838f 9a3f
000000c0: ae70 0a4b 4bc6 773f 1bea 0690 f325 bd3f
000000d0: 2e01 66c1 1739 bf3f 6b75 3c1a 46e7 a8bf
000000e0: 22bf 04e9 b6b0 c03f 27d5 d761 9c65 a1bf
000000f0: f364 3a01 7e40 81bf 5f98 f8da 4227 97bf
00000100: 5a74 58d1 1b82 adbf 1744 92c6 56df bbbf
00000110: e76f cec6 4ab1 c0bf b6bd 7a91 e099 9c3f
00000120: afe2 45f5 22b4 c1bf 7515 5346 ef1e a6bf
00000130: 883c 39bf 7076 c03f 676b d92b 8fe1 c3bf
00000140: 8e73 3786 b7af b63f 44ca c18c 2daa a2bf
00000150: 30bf aa65 f2e2 c2bf 263d 7f93 7540 bd3f
00000160: b988 4edd c21e a0bf f56d 9a1d fdde 843f
00000170: 36ca 08ba 6cdd 6a3f 44de 7306 a814 b2bf
00000180: 786e 01e5 eacc a4bf c866 6227 02c0 8fbf
00000190: 631b cea0 082c bc3f 6e24 5e8a 3e5a c0bf
000001a0: a290 57a3 d30e c5bf 7cb3 a298 279c af3f
000001b0: 79c1 68ac 7246 973f 92f1 9698 f61a b43f
000001c0: 3b6e 95d1 00b8 b2bf 7f17 1f2b cd25 abbf
000001d0: 27de d641 0ab4 9b3f 7605 ce8b fba5 95bf
000001e0: 038c 1b17 5acf ab3f dd9c 3205 26a2 b03f
000001f0: f999 4239 4cfe a9bf 0d81 dfc5 b146 a8bf
00000200: ed1d 561e ec06 b93f da07 813c c240 c03f
00000210: a4f2 9f73 9116 423f b5c5 d3b4 0350 b3bf
00000220: bbcb 2277 52f4 c1bf c3b5 d205 4f59 bebf
00000230: 4411 efe1 5a15 bebf 698e 83f7 be3f c43f
00000240: ecbf d42f 6189 bfbf a2f4 6640 a666 a43f
00000250: a41a bfca ef03 af3f 40ed 9484 2b53 a73f
00000260: cadf 36ae 4cb3 adbf e137 3da6 ebcb c13f
00000270: ca25 5585 1717 c03f 5e11 fba9 e502 c2bf
00000280: 2a36 902a bd90 bd3f da14 7ab9 e876 b5bf
00000290: 464b 9300 2cd2 a2bf d02b 9dff 4bd8 b0bf
000002a0: 159e d641 28c7 b5bf 926b 54c2 84bd b8bf
000002b0: c86d f7d1 5266 b43f e9b8 e5b7 2c81 a5bf
000002c0: dcb7 6a71 102b a9bf 214e 1644 5dd8 b33f
000002d0: 79b5 d0ff 3c3d b9bf 1378 97f6 c932 6bbf
000002e0: 9169 8a4d 529b c2bf d38d bbcc 3bef b13f
000002f0: a284 e0c0 bf05 c33f 9a16 e70d fad8 b6bf
00000300: 7ee9 4bc8 c03f c4bf 679f 6c10 22e6 973f
00000310: 723f 78c6 9988 aebf 071b 0a21 b878 b53f
00000320: 58f6 29bb df18 ba3f b988 a61c 3d64 953f
00000330: cb78 494b 85a1 903f 19ac 01a6 d09f bcbf
00000340: 0fd0 dae4 49eb c3bf 575a 2ffa 9555 af3f
00000350: 38b8 fd25 31e9 9f3f 6038 85d2 5ba1 c33f
00000360: 3d75 c1b0 719d c5bf a33d 67ba 2e28 a9bf
00000370: 705e b2e1 710e bebf ead0 54e8 df91 b0bf
00000380: f233 5770 f6e2 a53f 82e3 6e4e ff64 a5bf
00000390: 0cc6 ee59 0eca 8abf 35e3 916f 31ef 943f
000003a0: 873a a17b 875b c43f ae08 6853 773e c43f
000003b0: 8f2f 7cea 755a a9bf 3ec1 e1d7 c39b a63f
000003c0: 7314 596a f2d3 c3bf b368 7fd0 9225 a6bf
000003d0: a2f9 b0d1 c383 afbf 7eed b937 8b84 c13f
000003e0: b677 35fe b3ca b7bf f745 164a f632 97bf
000003f0: 3157 8a85 1c57 833f e297 605f 60b5 b7bf
00000400: 89fe 20f6 91c6 b2bf 86b7 3005 08dc b1bf
00000410: 0526 3186 85ec bebf 824d 8cb2 7be8 a2bf
00000420: 1bb4 71ae 4a8f babf 5eed 9512 3f99 b9bf
00000430: 892d e709 2c9e c1bf 4f38 86bf 5c29 b6bf
00000440: 367d 2127 fc61 acbf acdd 33a3 3ebb a53f
00000450: fb6f b85e bcb3 c0bf 78e7 0e36 3e73 b33f
00000460: a1df 5484 f665 9ebf db3c 521d 8b88 b3bf
00000470: 517a 7827 d2aa b5bf a174 704d 4bd4 adbf
00000480: f9fb 4171 297d 75bf 6967 a197 c931 b8bf
00000490: 866f 0ef0 6f52 b5bf 6663 4180 27ee a13f
000004a0: b523 d40c 08fd 92bf 73e7 90d9 81cf c2bf
000004b0: bed5 4df8 c13e b03f f992 93b6 ec34 b4bf
000004c0: 10fd bb32 d36d c13f 5912 2caa 996c a3bf
000004d0: 4ddd ad9f d73a c4bf 649f c9d9 f4f5 aa3f
000004e0: abee 3238 b952 afbf 1517 a497 72d8 923f
000004f0: cbf4 ec66 7d5f a63f 20c9 c44a e38e b6bf
00000500: 1657 009e 5043 c3bf 6cc6 ad13 fec8 c33f
00000510: 0860 dc2c 1028 91bf c1d4 2edc b3b8 bb3f
00000520: 901a 734e 3540 aa3f 2f86 dc06 6032 aabf
00000530: 7381 d92a be75 b4bf 0a03 eedf 75bb 923f
00000540: 621b bdd0 bbd3 38bf 378d 6547 0aae a2bf
00000550: d785 54f5 7967 8cbf 8db8 43b9 ce72 bd3f
00000560: 4ccc 51d4 0f39 af3f 58e9 b3cb fbb2 acbf
00000570: a66a e8c1 82b9 8c3f 293b 4c06 78a9 bcbf
00000580: 7a4d 45b8 786b c2bf 17dd 4b9e e52c 98bf
00000590: f33b abbb 6aa2 9f3f aa16 0e41 44f5 b83f
000005a0: 0af3 0a3d 7035 98bf 54f4 2bc5 b594 6f3f
000005b0: 81de e36a 7a46 a23f a4df 496c e9d0 68bf
000005c0: 8ff4 233d 239d c1bf ea00 3e62 d338 b3bf
000005d0: 64ab da0f 1d2a b33f 43ed e21b 6fd5 abbf
000005e0: ee98 3815 89f7 b33f 24a2 4055 f2b6 b03f
000005f0: 6fc5 9960 c934 babf 146d a48d 4956 bd3f
00000600: fe78 d8a3 1a22 c2bf c24e 7fbe e5d5 ba3f
00000610: 8ea4 7f32 7e89 bf3f 6eb0 d544 e882 afbf
00000620: 0c0f 9389 706c a8bf f104 cfad 99d4 b43f
00000630: 964d 2977 eda6 a4bf 33e4 27a3 140d b63f
00000640: ca18 df3d 4770 c3bf 9cde ea5d af75 bebf
00000650: 74cc 8a03 1e61 c23f e2d1 c5ce c069 b9bf
00000660: 2c96 506f 0cc7 b93f 5a9c 66ed 2fd6 c1bf
00000670: 7dc5 ff69 bef0 c23f 00a6 facc be6a a6bf
00000680: 9a01 4f4c 4ff5 c2bf 6aa6 b770 588c bfbf
00000690: 25e6 ab1d b114 7abf 4d3b 60fb eae7 b3bf
000006a0: 5239 334e d9b7 c03f 7820 dff3 212a c2bf
000006b0: 0b2d 80f3 09bd 87bf 3d97 1482 d782 aa3f
000006c0: 80d9 07c7 53d5 bebf 53f1 0b3c 4b34 9e3f
000006d0: c39b 0852 2aed b83f 0477 f757 94ab ac3f
000006e0: 7790 9606 3ecf b03f 6f37 3461 7dab bbbf
000006f0: f174 8a21 c411 b63f f9a1 ee4f f264 a9bf
00000700: a980 dfc6 8a87 8f3f fc4b 18ad ee99 b4bf
00000710: ac74 351c f92f c33f b92d 015d da68 afbf
00000720: ee88 84a3 0c1b c03f 3117 e6fb d941 a33f
00000730: c504 43d8 9dce c13f 163f c565 d9e3 c1bf
00000740: 43a8 7d1e 6ff1 ac3f 6c9a c857 2881 98bf
00000750: 9a1c 3233 e09e a4bf b015 cbbc 8414 c3bf
00000760: 07a1 7ddb 75f1 be3f b520 49dd 0075 c13f
00000770: 9680 9068 8ac4 c23f 7fac 9193 1519 a8bf
00000780: 59a8 4f58 0882 b1bf c47e f3fb cbf0 babf
00000790: 024b 200d ae14 b53f 5cda 4a7a 7c30 be3f
000007a0: 97e4 87f8 c7ef bc3f d69b b5b6 db43 c0bf
000007b0: 5fc6 36fb c136 b83f 6b80 eb61 ea2e b7bf
000007c0: e688 d797 d1f9 bf3f 60e8 1a42 c86e 713f
000007d0: af00 014d 720e a5bf fe75 acc4 3113 aa3f
000007e0: 4b94 c052 77f3 af3f a8b8 861a cafc adbf
000007f0: 8574 dbf1 bf5a bb3f 7496 cc12 1341 b93f

in_proj_bias f8 [192]
0.015236185032911515 -0.011163606270606018 -0.008248407414523448 -0.008731626381816621 0.0063847010889046445 0.005829325421462631 0.008341186487542356 0.01876981715155057
0.003288741944035231 -0.01451950972892113 -0.007506643648595575 0.029323651032836948 0.0008954854526726249 0.00803180078085991 -0.01621465833651328 0.03096033964507785
-0.0034515527747078154 -0.007917982643693896 0.012587503920509526 -0.027538930921105213 -0.0037116033737367303 -0.0030154881653849767 -0.0007461632572555651 0.014412459759284136
-0.01730837637301186 -0.008948642955695653 0.028467099481940664 -0.03121540171588727 -0.0031658936268680756 -0.018893962904631512 -0.03768482095791659 -0.020587389376220424
-0.0021722445665623845 -0.019666270398490233 0.03978898674302267 -0.039784425058563125 0.0019280576621346216 0.016611612581273617 0.01642887052874573 0.02870484997217352
-0.02775306489785115 -0.005661740797762264 -0.021693506123391645 0.01889460034871178 0.029723129610735158 0.022004972853252328 -0.02664647787228672 -0.018375247931634555
-0.003623416803158994 -0.02073085105070546 -0.010534164889168739 0.02061286106730196 0.009907315462644964 0.010670315172416995 -0.010703002697482037 0.02434820724278965
0.015606503622743026 0.025636291527754797 0.008293651177196748 0.0018314976845457392 0.006177855152256212 -0.017007469097061908 0.008522816671091346 -0.0009642252389263814
-8.018773155558428e-14 -3.8096352121409626e-13 9.957317090629995e-14 8.162960442274905e-14 2.428800253722778e-13 -2.736478410835402e-13 -3.410441616673108e-13 -9.849085791316794e-14
3.419634305319753e-13 -1.9379437104299456e-13 -5.847661519684309e-14 -8.458791128833568e-14 -2.0628887943909475e-13 -9.515093226970049e-14 4.918060818405927e-14 7.738989305104638e-14
7.178061659027413e-14 -1.8808931197897493e-13 -2.540297518916904e-13 -2.4358446025236025e-13 -2.2242134696499676e-13 1.644559988350848e-13 -7.396366584427191e-14 4.6513973959070185e-14
1.7659289060673115e-13 -2.4181219637629226e-14 -7.303608965917726e-14 -3.7596842192834715e-13 2.5809488385944475e-13 1.5983517020250812e-13 -4.3165539368109694e-14 -2.8819677157427484e-13
-3.4800163132758585e-14 2.920200052784827e-14 -1.3597044233011013e-13 -1.385521113322165e-13 2.0552029494037476e-13 3.784607029366925e-14 -2.0777882552442428e-13 2.3962302061507733e-14
-3.115772020726463e-14 3.0198547254912607e-13 3.2011556804203747e-13 3.662002134950869e-14 -5.050134783170688e-13 4.186734058454866e-13 -3.4190084708371295e-14 -2.3366965650011587e-13
2.2878254713624586e-13 -2.675995902901635e-13 3.585339233781494e-14 -1.236283105833187e-13 -2.387299323552492e-13 -1.1298303686926873e-13 -1.1523870494112078e-13 2.1612150883111905e-14
3.5842305685524585e-14 4.4526553140158434e-14 -3.4146894315188243e-13 -5.534741496347439e-13 -2.90577692825159e-13 2.5431052805922608e-14 7.752364671590717e-13 2.90928017345146e-13
-0.0027246721607735954 0.007427279122350582 0.00010182979462775021 -0.016088365905157366 0.008373398801433524 0.007523627726333388 0.007692867214751021 0.0018817767432791524
0.005197271919134652 0.0033095265002865077 -0.011500191758403014 -0.0053170922281647005 0.009114602627112363 -0.0033913972827504537 -0.002196492521938836 -0.01158829809399497
0.008288693484345747 -0.002666654833890314 -0.006840601528466309 0.008274044454714503 0.0014599476333736143 0.011070403544247577 0.008253956501185074 0.009480483614303545
-0.0016974069494410824 -0.001659093098340975 0.006196431699973471 0.00206919892209568 -0.018775384230261875 0.0036372496472984804 0.0007974317967012629 0.019717604393138802
-0.0038686494945903024 -0.006224502253889356 -0.004388098226566389 -0.007237895827520028 -0.008373399394010038 -0.007382014160474222 -0.006932352069512757 0.010403976322534913
0.018831031935487436 0.0033252131042134135 -0.001203719002164157 -0.014869380748627327 0.004564979744352597 -0.005774532183146147 5.626356346868337e-05 -0.013095047092466054
-0.0075160031009843965 -0.007111927129645052 0.00942657456513597 -0.016356214724071304 0.0068135689460382945 0.02296416933836948 0.005647544402349497 -0.006206265997702791
-0.0019192710462724927 0.0010851671002676817 0.000632496396301125 0.0032510090333876824 0.0007461516183468479 0.001597600337805984 -0.024571569396866756 0.003292150809869264
00000000: 1d10 7523 2634 8f3f 198e b3de f1dc 86bf
00000010: eb37 b780 8ae4 80bf dd9f 010e e3e1 81bf
00000020: f5fe f125 d826 7a3f 77d0 afa0 7de0 773f
00000030: c901 6419 2f15 813f df6f 451b 6538 933f
00000040: 9315 07e3 fdf0 6a3f bf71 849b 67bc 8dbf
00000050: 223a 934f 49bf 7ebf bccc bde8 0407 9e3f
00000060: 11e1 db5d e057 4d3f 6049 740d fa72 803f
00000070: 47a5 154d 939a 90bf 26a1 fe38 11b4 9f3f
00000080: 708f 3549 6e46 6cbf f128 0aa4 4d37 80bf
00000090: ae35 6a2d 7ac7 893f d119 b15e 2a33 9cbf
000000a0: a1b7 63e3 cb67 6ebf d85f a8e1 efb3 68bf
000000b0: c02d c964 4573 48bf 277e 919a 4784 8d3f
000000c0: 2133 e079 49b9 91bf 47d3 b486 aa53 82bf
000000d0: b4cc 25b5 7a26 9d3f 9044 0126 eef6 9fbf
000000e0: 6363 e132 5cef 69bf 9da4 1163 f058 93bf
000000f0: a0c5 23c3 6c4b a3bf 67d3 5250 dc14 95bf
00000100: e1df e9eb 86cb 61bf 0282 c810 6523 94bf
00000110: d0c1 9ad9 385f a43f ca8b 08c9 9f5e a4bf
00000120: 3f89 a226 dc96 5f3f bae1 1473 a202 913f
00000130: 5954 86d6 bad2 903f aae1 77df cd64 9d3f
00000140: e86f 66a8 4c6b 9cbf 787e 09f9 c330 77bf
00000150: 8c98 578d d236 96bf 345b 462a 1b59 933f
00000160: f495 7376 bd6f 9e3f 442f 04bb 7888 963f
00000170: a96b 0fdc 3649 9bbf 7765 b003 f6d0 92bf
00000180: ae45 6b15 dbae 6dbf 97c5 1fdd 773a 95bf
00000190: d967 84ad ef92 85bf 3aeb a4b0 891b 953f
000001a0: e8c8 395f 494a 843f 77db a075 51da 853f
000001b0: c2fe 6fb4 74eb 85bf c5c9 4b87 bcee 983f
000001c0: e512 5175 4df6 8f3f 7a49 cf66 6640 9a3f
000001d0: 135e 9004 43fc 803f 78c8 19aa db01 5e3f
000001e0: faf1 695d f34d 793f cf0a 3dee 676a 91bf
000001f0: 0525 fa16 6974 813f a150 ffee 8198 4fbf
00000200: 62df d58f 2292 36bd b2c1 f124 d4ce 5abd
00000210: b686 e1cc 0007 3c3d 0197 ef6b 08fa 363d
00000220: fc4c cb6a 5617 513d 54ec 35ec 9941 53bd
00000230: 051c 8f97 b4ff 57bd 7b39 47a6 03b9 3bbd
00000240: 4f86 adf8 4310 583d 48ed 3095 2d46 4bbd
00000250: 0022 a327 af75 30bd a2bd 1f8d 33cf 37bd
00000260: 41a5 0615 5708 4dbd 653e 5de5 58c8 3abd
00000270: 9d1e 642f acaf 2b3d ef9f 0e8d 87c8 353d
00000280: 32d7 e7a9 5634 343d 8c77 56b3 a178 4abd
00000290: 6a0a 7f74 31e0 51bd 30fe b50c 0724 51bd
000002a0: 69b9 fdd4 924d 4fbd ab1f 67dc 2625 473d
000002b0: 2d7d 88d0 a4d1 34bd 4001 38bf 5e2f 2a3d
000002c0: f46d dbed 6dda 483d 22cf 8614 c339 1bbd
000002d0: 1dab d80d ce8e 34bd 883c 9550 d874 5abd
000002e0: cb07 3c91 6c29 523d cb27 463d ab7e 463d
000002f0: 2c66 a750 cf4c 28bd 196e a305 b147 54bd
00000300: 67fc f367 3b97 23bd 1708 0da9 7370 203d
00000310: 62a5 c2f9 d922 43bd 8fd1 57ab dd7f 43bd
00000320: cf1d 3024 a6ec 4c3d 16ef b98b 314e 253d
00000330: ffd6 c068 053e 4dbd 083f 6ed0 a9fa 1a3d
00000340: 08c8 2dfb 4c8a 21bd 744a 782e 1640 553d
00000350: dba7 4a7d b086 563d 2085 d852 809d 243d
00000360: b6dc 6ccc c1c4 61bd 9a26 c24a 2676 5d3d
00000370: d285 257c 4f3f 23bd 2cde 7a16 6b71 50bd
00000380: 598d 1d46 6119 503d cb04 014a a5d4 52bd
00000390: 64ea 8bb4 042f 243d 58c1 1de7 2d66 41bd
000003a0: 56c7 c07d 93cc 50bd 06bb 712a 49cd 3fbd
000003b0: ed22 df72 e937 40bd 1e01 d043 4755 183d
000003c0: 7580 13ae 6b2d 243d 2729 4bdc f310 293d
000003d0: 2a35 058d 5b07 58bd 2ad6 ab7f 4079 63bd
000003e0: 8818 5115 9572 54bd 6a40 947d 00a2 1c3d
000003f0: c5ed 9996 b546 6b3d bd75 82ab e478 543d
00000400: 75bd 543a 0d52 66bf bf32 dc0e 116c 7e3f
00000410: 0030 fd8c aeb1 1a3f ba8a a2f5 7779 90bf
00000420: 4a74 1190 1226 813f 6195 8270 18d1 7e3f
00000430: 67e3 9851 8e82 7f3f d349 8764 bed4 5e3f
00000440: f6d5 bc0e bc49 753f 32ee af82 941c 6b3f
00000450: 8824 009c 698d 87bf 1b31 ad13 60c7 75bf
00000460: b18a 9841 adaa 823f 8358 598d 46c8 6bbf
00000470: a53b 86f1 60fe 61bf fdda a30a 9bbb 87bf
00000480: e2df 889b a9f9 803f 4d14 a469 61d8 65bf
00000490: ea7e 98fd e304 7cbf 948d b572 fbf1 803f
000004a0: 63a7 b5d5 76eb 573f 3495 6869 14ac 863f
000004b0: b1ae e149 73e7 803f c5ee 96f8 806a 833f
000004c0: cc9b 7ed5 70cf 5bbf 8215 4ca6 bd2e 5bbf
000004d0: 4173 0df8 6d61 793f 13d3 60b6 6cf3 603f
000004e0: 518a f4b4 da39 93bf cf85 0a89 ddcb 6d3f
000004f0: 8b69 6abe 5721 4a3f b192 1808 da30 943f
00000500: e3ef e261 25b1 6fbf eb4e d419 dd7e 79bf
00000510: 86ed fe25 41f9 71bf aad5 efdd 7ba5 7dbf
00000520: f9cf 6da4 1226 81bf 6e93 5d56 9a3c 7ebf
00000530: bd42 c416 1965 7cbf d9dd 6d10 ae4e 853f
00000540: c85b 4029 7148 933f 0a4e 1d31 7a3d 6b3f
00000550: 2215 dd6f c3b8 53bf 078e 3780 d673 8ebf
00000560: 38a4 576b bab2 723f ed5f 052e 09a7 77bf
00000570: a10c 0852 917f 0d3f 9c86 0378 93d1 8abf
00000580: d2ec 3eb8 19c9 7ebf 940b ef66 6521 7dbf
00000590: 46b7 c36b 3d4e 833f d611 4efd aebf 90bf
000005a0: 3f29 ad7c 8be8 7b3f 7104 2751 eb83 973f
000005b0: 863b 2c28 e121 773f 78b8 d8d7 bd6b 79bf
000005c0: 1fbf 0e98 0172 5fbf 03c1 344d 85c7 513f
000005d0: 6d37 21ab c3b9 443f c4dd 462f dca1 6a3f
000005e0: 0e66 3a66 2c73 483f 0838 fd4c d22c 5a3f
000005f0: 5a3d e21b 4a29 99bf 63fd fa01 24f8 6a3f

weight f8 [64, 64]
0.035440993370129514 -0.04955207475846337 0.10024591552226615 -0.06304237750026188 0.04551898933777176 -0.01337037682537807 0.11401012932043332 -0.12633909150823608
-0.10428931012340138 0.0154046838739275 0.028025009253037452 -0.11144850751752244 -0.06819483456781318 0.025243252908472236 0.04451083992960328 0.07605178247535949
-0.11522581325533833 -0.009975179352830068 0.06493623812477078 0.03778417077905332 0.053234991111376764 0.028453031973112324 -0.03510281260044602 0.08534938204717173
-0.08684843755578601 -0.025952223954637275 0.05803609441084772 0.02702705928553641 0.024449509326522255 0.10017445901821535 0.00737781227615582 0.09184637335904135
0.03578737297328654 -0.03441039526181617 -0.039730455163881996 -0.04015038367777052 -0.05511026082744925 -0.11231718127290319 0.0008960702002132946 -0.042931207125160416
0.11797969878247445 -0.13194436576744148 0.1137089690130388 -0.03537155291969011 0.11261589012806121 0.07608070522852177 0.10557065573928522 -0.12585132744402802
0.11568110664016529 0.0689423697890998 0.08679910338740372 -0.007691580221990283 -0.12107275165337836 -0.11682270861999426 -0.01490347673783759 0.048636512688468254
-0.013519588117541847 -0.11323144408077165 -0.06851821079756813 0.018651405119871244 0.13466037723566174 0.009778608208645815 -0.015285266303536564 -0.05854025233032341
0.09221575582069769 -0.0058116960601853705 0.11843533936920653 0.004693409710136495 -0.12840249908419726 0.019887914440409972 -0.050364653937198495 -0.012656140510720136
-0.05377985463263571 -0.051542805318272024 0.08431525017495199 0.010620567475978199 -0.12031034345549745 -0.10563941911489097 -0.028157866604160753 -0.09926772197911428
0.052745717311821906 -0.10695996736978099 0.01258980472856976 0.025611352587545023 0.0019259391892334434 0.05168881081264713 -0.07224984254963532 -0.06258638595283947
-0.018767822647326852 -0.06950644077544305 0.05104974112107157 0.007013412869484345 0.09586841664896706 -0.09356365602085842 0.07254030027177097 -0.07400931433750617
-0.10765984585535804 0.017871497569292925 -0.04369549863591105 0.03657067813842024 0.09610338213132465 -0.01337340369767642 -0.09705082683827645 -0.012200052861021082
-0.12749161605098985 -0.11420701197312778 -0.06665525701256973 -0.012292667358339688 0.022508376870085604 0.026884953196057427 0.12109128293739907 -0.06624809984269012
-0.057744371571826596 0.10997229991825884 -0.08931601903405482 0.004627129529895087 -0.026268191218195003 -0.08604669255430457 0.06843455738596238 0.019738370512581482
-0.014858295146425712 0.09346223148950139 -0.0022750768047994177 0.07993988447848255 -0.09618634936778905 -0.04084579967259683 -0.10036466035126676 -0.10899935996006624
-0.10772293221434306 -0.02988043660707531 -0.12775140791856332 -0.11510395803914099 0.1091604593170311 0.058914968883227205 0.09373132951193422 -0.10109769913425874
-0.03654243902768852 0.01972958043648005 -0.09528337543310678 0.007974633612885702 0.0880047116194371 0.10000427166622869 -0.027480639105301706 0.10902000398174899
0.0854508696885371 0.13043286368605203 -0.08629946847027108 -0.04556741716865379 -0.10246930232564891 -0.03463593331635142 -0.008311119751346956 0.025367803922195804
-0.13902362119536207 0.11518177152906267 -0.03825949614666765 0.12944098411687205 -0.026413861410130933 -0.05120855922942107 0.09097523323025883 0.02178990989819121
-0.08026133495379124 -0.08511394423851426 -0.0913487310194336 0.11994628898534528 0.10190673741667625 -0.08129174821605736 -0.017595269777644883 0.06251241915485434
-0.12238506379940228 0.013758372170483396 -0.08094919707387054 -0.019759957842803367 0.11031654205715806 -0.03721515890608809 -0.020503394529065674 -0.08522621334697536
-0.10202379460685135 -0.0645654957211776 -0.03686051441195051 0.03760207717585936 -0.06722560070594592 0.00514472333014183 0.06640761052754442 0.025013266746121535
0.05287628518650492 -0.12817147801630888 -0.10786808568216939 -0.06460246243678042 0.02388314584681097 -0.09125327330325429 0.053799472941010326 -0.04591109728569773
0.09881774447909268 -0.026068849805781787 0.07049207045192074 -0.04616259200004338 0.09683174967344457 -0.04019800726056981 -0.04501651329557084 0.12497112440061672
-0.10132699488373666 0.0862186545255748 -0.10096086405851641 0.07814185577929335 -0.047555273035309556 -0.08156191035821621 -0.10841526135938159 0.04528255489860299
0.08520311126611063 0.10438753139634399 0.05709169530012318 -0.0015741140489077517 -0.08914273338702741 -0.04258676829265158 -0.04277049216720198 0.06267101750068899
-0.04286303122392719 0.044344275780170965 -0.06274390586641762 -0.11163038173564895 -0.030398667751734228 0.04238227420082505 -0.01966067621846427 -0.01150006210798533
-0.07592520991427712 0.05853103165026752 -0.10022239350373743 -0.09859122172695078 -0.107709232725653 0.12087019616012912 0.017017777291661672 0.021201465330378366
-0.03471994464352114 -0.11347221563351687 0.01925425526168562 0.025121855197919905 -0.09057092590363854 -0.0003213504147895807 -0.025722075046267216 -0.08122816896691218
0.07233788343206714 0.02917871460749343 0.0003459682345923163 0.039127974549505576 0.05978912173394857 0.030019197155172234 -0.06914775218527089 -0.016470420619128547
-0.06362991372042717 -0.13630827626935962 0.0069399547006320905 -0.006451454287390298 -0.008145220239662736 -0.0986124977325978 -0.1068476873565518 0.042370646792040265
00000000: 70c7 ec66 5225 a23f 53b6 12b9 e35e a9bf
00000010: 41c8 b960 b7a9 b93f 992e a095 8b23 b0bf
00000020: cffb 1ad5 434e a73f e5ff 9999 ed61 8bbf
00000030: d90f d890 c42f bd3f 18fb 1d1d e12b c0bf
00000040: c96a 4d48 b4b2 babf 17c6 8cab 7d8c 8f3f
00000050: 8bfa d888 96b2 9c3f 00cc f9ae e387 bcbf
00000060: 4192 3978 3775 b1bf b005 bf06 5ed9 993f
00000070: a459 a1f3 1fca a63f b0bf 882e 2178 b33f
00000080: c130 965b 707f bdbf aeb3 bce8 dd6d 84bf
00000090: 7837 124b a99f b03f f7e2 9a63 7258 a33f
000000a0: 8205 a7e3 9d41 ab3f 5ead 2fa7 ca22 9d3f
000000b0: 22aa 3bf0 fef8 a1bf 8b5c a004 75d9 b53f
000000c0: bbc3 02ff b23b b6bf 0615 9344 3893 9abf
000000d0: 97dd f62e e8b6 ad3f 8527 f43e fbac 9b3f
000000e0: 46b7 d7cb 4a09 993f bbb2 6089 08a5 b93f
000000f0: d2e8 1267 3238 7e3f 6152 d571 3e83 b73f
00000100: c75e 0ff9 b852 a23f 5978 9544 3d9e a1bf
00000110: e50a 2bdb 8c57 a4bf b8c0 a251 978e a4bf
00000120: e918 db7f 6937 acbf f494 589c d1c0 bcbf
00000130: 3213 381a c85c 4d3f c125 2945 14fb a5bf
00000140: 35d7 dce3 ea33 be3f 6f6a ee8f 8de3 c0bf
00000150: cd41 2cef 071c bd3f 0563 ff5d 381c a2bf
00000160: d325 1c1d 65d4 bc3f 7328 d06c 067a b33f
00000170: fd47 d1b1 ad06 bb3f 77e0 c373 e51b c0bf
00000180: 70db c8e9 469d bd3f 4d8c 8d07 35a6 b13f
00000190: 49fb 5e4e 7738 b63f b7cd 20d8 3481 7fbf
000001a0: b6b9 c9b4 9ffe bebf a3f8 f3d0 17e8 bdbf
000001b0: 1d55 7cc9 b685 8ebf 41e4 c68e e2e6 a83f
000001c0: 06d6 8f66 28b0 8bbf 26ad 3465 bcfc bcbf
000001d0: 4f55 8ed2 688a b1bf 13a3 0e9c 5a19 933f
000001e0: 05a8 251e 8d3c c13f aff9 a693 ce06 843f
000001f0: 0921 13b7 e14d 8fbf 6a43 84ea fcf8 adbf
00000200: 6c02 6da7 739b b73f 6a61 3448 01ce 77bf
00000210: 0c0a 4845 c751 be3f c963 6393 6539 733f
00000220: 3a49 253b 7e6f c0bf aac7 6d58 7f5d 943f
00000230: 64ba 115b 65c9 a9bf ec6d b26c 76eb 89bf
00000240: 345f a979 0889 abbf fd44 5f8e d163 aabf
00000250: bf33 0e2a af95 b53f 5057 cb6f 3cc0 853f
00000260: 2b0b 839e a8cc bebf 2a53 445a 2f0b bbbf
00000270: a08f c270 6ad5 9cbf 11df 7203 9c69 b9bf
00000280: d577 b795 7c01 ab3f a19d d579 ba61 bbbf
00000290: 0aef 93fc aec8 893f 8a4e 14c7 dc39 9a3f
000002a0: e2e7 3c75 f98d 5f3f b6d6 04b0 f476 aa3f
000002b0: 2a4f e436 f77e b2bf 9e9f d750 a905 b0bf
000002c0: 3118 f341 df37 93bf 6cec fd91 2ccb b1bf
000002d0: 4725 2b11 3123 aa3f 2345 86ae 18ba 7c3f
000002e0: 7803 3a22 d58a b83f f42a b4aa c9f3 b7bf
000002f0: ba2c 4f49 0092 b23f 2bd1 ad40 46f2 b2bf
00000300: b889 0a7d 988f bbbf 16d5 5ce6 e74c 923f
00000310: 214f 3fa3 415f a6bf 78b1 3155 64b9 a23f
00000320: e1fd 4933 3b9a b83f 5f4d 24dc 8363 8bbf
00000330: c6f5 51af 52d8 b8bf 7365 6160 57fc 88bf
00000340: 2202 ba30 a551 c0bf c101 66b5 ab3c bdbf
00000350: dbb7 f9a4 5110 b1bf 0a04 47e2 e52c 89bf
00000360: 0e18 2c9a 6f0c 973f 5d1d edaa ba87 9b3f
00000370: dcfb 0b9c d6ff be3f 6a1a 3fae a2f5 b0bf
00000380: b7ae db96 ab90 adbf 2f65 9d07 2527 bc3f
00000390: 179b c224 6add b6bf 8886 15a0 e5f3 723f
000003a0: fd31 d478 0ce6 9abf db1f 73f2 2707 b6bf
000003b0: d091 e359 ed84 b13f b0bc 4f9f 4b36 943f
000003c0: d861 d39d 066e 8ebf 5899 a80b 24ed b73f
000003d0: d5bb 1e8f 2ea3 62bf 6829 7bb5 f076 b43f
000003e0: 7235 db28 ab9f b8bf a0a8 8b9b bde9 a4bf
000003f0: b601 e295 7fb1 b9bf 0e3c 50ce 61e7 bbbf
00000400: cacb e3e6 ba93 bbbf 0603 1228 fa98 9ebf
00000410: 909b 837b 285a c0bf 8913 6bf7 7377 bdbf
00000420: d771 c89a f0f1 bb3f cd56 3251 1a2a ae3f
00000430: 8246 ddc2 c6fe b73f 6384 7bef 89e1 b9bf
00000440: 637a 14c9 b0b5 a2bf f234 f4ba fd33 943f
00000450: 6c72 56c5 7d64 b8bf 24f8 8434 0155 803f
00000460: 0ea5 4c0e 7a87 b63f d649 4444 e199 b93f
00000470: f6fa eb78 e223 9cbf 6c1e b627 bce8 bb3f
00000480: 481e bab2 1be0 b53f d577 ed29 06b2 c03f
00000490: 8bf3 bdd2 b817 b6bf 254f 01cd 9c54 a7bf
000004a0: 3225 559e 6d3b babf b367 b811 cdbb a1bf
000004b0: dc8e 339c 6b05 81bf 3562 de80 04fa 993f
000004c0: cde9 33a9 86cb c1bf 040b d075 8d7c bd3f
000004d0: 6b39 6ca9 bf96 a3bf 7aa2 c5ac 8591 c03f
000004e0: 669c ab3b 3c0c 9bbf 17cf 541e 0238 aabf
000004f0: 9a4d 7823 274a b73f a702 9519 1850 963f
00000500: 8d84 c2c0 018c b4bf e01f f006 07ca b5bf
00000510: 0d73 4264 a162 b7bf adf7 77cc ccb4 be3f
00000520: e259 7258 8f16 ba3f 42cb 0538 89cf b4bf
00000530: 3681 0991 7e04 92bf 642b dd5b d000 b03f
00000540: e88c 89a6 a054 bfbf d0ba 2574 592d 8c3f
00000550: 03da 112a 16b9 b4bf 7d1a d252 f43b 94bf
00000560: abe2 5774 b43d bc3f 048d d584 dd0d a3bf
00000570: 9c58 d683 d7fe 94bf 4a51 1697 62d1 b5bf
00000580: 3c10 403d 3b1e babf 6d8e 9244 5d87 b0bf
00000590: 247d d39f 61df a2bf 9bc6 7657 9440 a33f
000005a0: fd69 7c6c b235 b1bf 0be7 3227 a212 753f
000005b0: e1da 6bd3 1600 b13f f117 90ea 139d 993f
000005c0: f452 38b7 9912 ab3f 7315 2e49 ec67 c0bf
000005d0: ad7b 492c 3e9d bbbf cc33 6877 c989 b0bf
000005e0: 46c1 59c9 d274 983f a18c 7de0 5f5c b7bf
000005f0: e6b8 a5c1 9a8b ab3f dc28 bbca a881 a7bf
00000600: 2b5c cda4 1e4c b93f 12d0 70e5 cab1 9abf
00000610: 50e4 37b1 c40b b23f 73a7 e08d 9fa2 a7bf
00000620: e2d8 0f2e f7c9 b83f 56d7 184d d594 a4bf
00000630: 7ad3 c488 670c a7bf 16b8 3e8c 1bfe bf3f
00000640: 8944 3ae1 90f0 b9bf 4312 7efd 6c12 b63f
00000650: 9da6 4e39 92d8 b9bf 0954 05cb 1a01 b43f
00000660: 4ac5 e02c 2a59 a8bf 857b 96c9 3de1 b4bf
00000670: 9e03 ed41 1ac1 bbbf 8fd6 bc68 462f a73f
00000680: ecc7 6700 dfcf b53f cc1c 7529 24b9 ba3f
00000690: 15dc 5f68 1f3b ad3f 740e 0e17 50ca 59bf
000006a0: c2c5 92e4 0ed2 b6bf 6a58 1ed2 eecd a5bf
000006b0: f214 2f92 03e6 a5bf 8c8f 9232 350b b03f
000006c0: 0ede a0aa 24f2 a5bf 0f35 7bfc 4ab4 a63f
000006d0: 7e35 b80f fc0f b0bf 6d6b cb06 cf93 bcbf
000006e0: 72b9 570f d420 9fbf bccb 3e23 21b3 a53f
000006f0: ea8f 80a5 ed21 94bf 2502 3f35 588d 87bf
00000700: d214 86a5 d56f b3bf 7063 7a85 c7f7 ad3f
00000710: b2e6 6cbe 2ca8 b9bf 986c fd38 463d b9bf
00000720: ceaf 0810 d592 bbbf c4a0 9163 59f1 be3f
00000730: 6656 acb3 1b6d 913f 2090 e240 d6b5 953f
00000740: c294 8605 d0c6 a1bf b28e 26df 830c bdbf
00000750: f18f a132 63b7 933f e9ab f529 8bb9 993f
00000760: 357d b9fc a72f b7bf 5cdb a685 5d0f 35bf
00000770: 3e97 6f3c e356 9abf d612 3a89 5ecb b4bf
00000780: 3f43 9a4b bc84 b23f 5dfc e963 06e1 9d3f
00000790: bf7f c640 62ac 363f 7202 19f6 9408 a43f
000007a0: 80fb 0105 ae9c ae3f c872 2238 5abd 9e3f
000007b0: 5647 3ac6 aab3 b1bf aa5f a437 9fdd 90bf
000007c0: 4afe 79ce 0c4a b0bf d521 60b2 8c72 c1bf
000007d0: ce56 99e7 116d 7c3f bcd0 d012 d76c 7abf
000007e0: dc71 62f4 70ae 80bf 9506 bd2c ab3e b9bf
000007f0: df80 d9ba 5e5a bbbf ee79 90fc 9ab1 a53f
