code/baselines/saved/grud_model_best.pt (torch, 8937 bytes, 19 tensors)

weight_dg_x f4 [33]
-0.049466908 -0.1293306 0.02073448 0.0068618767 0.42737076 -0.3847198 -0.16080987 0.02129949
-0.24885374 0.03661806 0.062721744 0.3215722 0.054054838 -0.27070856 0.060458854 -0.08833024
0.05821926 -0.044203117 0.39346004 -0.043540068 -0.2269251 -0.10615376 -0.18375392 -0.009406297
-0.094525866 -0.15514682 0.087372504 -0.10899733 -0.16582769 0.025651688 -0.122065604 0.014026918
-0.0979326
00000000: d09d 4abd 3e6f 04be 5bdb a93c 98d9 e03b
00000010: 57d0 da3e fef9 c4be 58ab 24be 457c ae3c
00000020: 84d3 7ebe d2fc 153d 4274 803d 1da5 a43e
00000030: 9b68 5d3d 509a 8abe b4a3 773d 7ce6 b4bd
00000040: 5277 6e3d 540e 35bd 9873 c93e 1257 32bd
00000050: 0e5f 68be 2467 d9bd fd29 3cbe de1c 1abc
00000060: c796 c1bd cfde 1ebe 5bf0 b23d fe39 dfbd
00000070: bcce 29be 7d23 d23c 88fd f9bd 29d1 653c
00000080: e390 c8bd

weight_dg_h f4 [33]
0.9672363 0.7291406 0.75028604 0.061255064 -0.16545233 0.48971614 0.7739174 0.91152585
-0.104609765 0.34808624 -0.15401238 0.70787543 1.1252872 -0.070181414 0.0039698784 0.05684169
1.2624959 -0.081029035 -0.15951075 0.6184937 1.2444633 1.0400393 0.8986578 -0.106045954
-0.0004261221 0.05204844 0.7712329 0.502814 -0.076999955 0.001133576 1.1672288 -0.049666516
1.2031307
00000000: cc9c 773f f5a8 3a3f bf12 403f 97e6 7a3d
00000010: 566c 29be 13bc fa3e 731f 463f c259 693f
00000020: a53d d6bd 5c38 b23e 6cb5 1dbe 5337 353f
00000030: 6909 903f 46bb 8fbd c115 823b d5d2 683d
00000040: 7799 a13f 8df2 a5bd c956 23be 9a55 1e3f
00000050: 934a 9f3f 0220 853f 700e 663f 9f2e d9bd
00000060: 2469 dfb9 bf30 553d 856f 453f 6bb8 003f
00000070: 27b2 9dbd 8094 943a c167 953f 1e6f 4bbd
00000080: 3000 9a3f

weight_xz f4 [33]
0.005398159 -0.07142116 -0.044735223 0.31111616 0.57203615 0.7368524 -0.12520455 0.9869331
-0.10213374 0.84032243 1.2539841 -0.15198627 0.15038984 0.036181696 0.6598779 0.09981588
0.34106058 0.068867825 -0.20244545 0.077511996 0.048009306 0.09010254 0.027920876 0.090678945
0.1798321 0.03291244 0.0044261827 0.32677227 0.11399204 1.0094824 0.4068336 0.13671692
-0.35364148
00000000: 0ae3 b03b 4245 92bd 483c 37bd 9e4a 9f3e
00000010: f670 123f 5ca2 3c3f 9f35 00be a6a7 7c3f
00000020: 7f2b d1bd 5f1f 573f 8d82 a03f 4aa2 1bbe
00000030: cbff 193e 4233 143d c2ed 283f 456c cc3d
00000040: 7e9f ae3e 930a 8d3d dc4d 4fbe 9cbe 9e3d
00000050: 68a5 443d ae87 b83d 52ba e43c e2b5 b93d
00000060: e825 383e 32cf 063d 8309 913b b24e a73e
00000070: a974 e93d b836 813f 7e4c d03e 85ff 0b3e
00000080: 7f10 b5be

weight_hz f4 [33]
-0.2774169 -0.07393584 -0.06839865 -0.58912575 -0.61303836 -2.2428567 0.25160095 -1.106275
0.5068303 0.8089737 1.4649626 -0.061112408 0.1064998 -0.07736873 0.18957028 -0.086725175
0.56434256 -0.02146237 -0.08343498 -0.07044164 -0.12807538 0.38018075 -0.16998033 -0.22906601
0.24511725 -0.35829595 -0.2232432 0.09835807 -0.14153782 1.0585103 -0.15077652 0.3600617
-0.18316503
00000000: 9709 8ebe ac6b 97bd 9714 8cbd f2d0 16bf
00000010: 15f0 1cbf f78a 0fc0 d7d1 803e 6b9a 8dbf
00000020: a1bf 013f e718 4f3f e583 bb3f 0151 7abd
00000030: 911c da3d 7f73 9ebd b61e 423e f89c b1bd
00000040: c178 103f dad1 afbc f5df aabd b543 90bd
00000050: 3126 03be 0da7 c23e 530f 2ebe 4890 6abe
00000060: 0400 7b3e 9172 b7be de99 64be f56f c93d
00000070: 4aef 10be 447d 873f 2965 1abe 025a b83e
00000080: 9d8f 3bbe

weight_mz f4 [33]
0.15630242 -0.06550468 -0.13074219 0.34497327 0.4298555 0.31820858 -0.014125999 0.2530993
-0.2826007 0.6300563 0.54413575 -0.046861738 0.17969443 -0.24750857 -0.264207 0.16662678
0.36898398 0.013512544 -0.1691811 -0.05121166 0.11590251 0.12419469 0.057400078 0.29344663
0.035735156 0.038032353 -0.50810724 0.14399366 0.01500529 -0.27761573 0.25626647 0.20499614
-0.37078124
00000000: be0d 203e 5127 86bd 48e1 05be 56a0 b03e
00000010: 0516 dc3e 3cec a23e bc70 67bc 3b96 813e
00000020: 0ab1 90be 5f4b 213f 7b4c 0b3f 18f2 3fbd
00000030: d101 383e e372 7dbe 2446 87be 36a0 2a3e
00000040: 78eb bc3e b863 5d3c cf3d 2dbe 51c3 51bd
00000050: 4c5e ed3d c959 fe3d 581c 6b3d a33e 963e
00000060: 075f 123d d0c7 1b3d 5113 02bf 1373 133e
00000070: bfd8 753c a623 8ebe 5c35 833e 82ea 513e
00000080: 0ad7 bdbe

weight_xr f4 [33]
-0.13981523 -0.6132033 -0.60579216 -0.043990444 0.16462973 -0.8790192 -0.42124033 0.4422488
-0.12704825 -0.7663129 -0.93083245 -0.5695921 -0.17394933 -0.026099037 -0.6094087 -0.23920232
0.014215034 -0.2793 -0.44418225 -0.29533583 -0.33400002 -0.26464498 -0.3753992 0.3204378
-0.9668442 -0.27856532 -0.09990939 -0.14285402 -0.8499724 -0.73929584 0.060081933 -0.9488388
0.09315885
00000000: b92b 0fbe e4fa 1cbf 3215 1bbf 532f 34bd
00000010: b294 283e 6707 61bf d0ac d7be 6f6e e23e
00000020: f018 02be 152d 44bf 094b 6ebf cad0 11bf
00000030: c61f 32be a6cd d5bc 3502 1cbf 74f1 74be
00000040: 2de6 683c 6900 8fbe db6b e3be 4236 97be
00000050: 0d02 abbe 8c7f 87be 5334 c0be 6c10 a43e
00000060: 1a83 77bf 1da0 8ebe 4b9d ccbd 5348 12be
00000070: cb97 59bf 7e42 3dbf 7918 763d 19e7 72bf
00000080: 11ca be3d

weight_hr f4 [33]
-0.20723145 -0.099552624 0.044087023 -0.18744023 -0.452609 0.6040634 -0.057220727 -0.6427427
0.09535121 -0.2899991 -0.5925216 -0.201754 0.2623539 -0.09228379 0.5039531 0.31553984
0.39730915 0.16562079 -0.30661166 -0.29807046 -0.027185593 0.115035824 0.06090632 -0.26454493
0.22107074 -0.35236797 0.23398124 -0.05994446 -0.2121762 -0.19283144 0.23285528 -0.4130197
-0.09976773
00000000: 7b34 54be 3fe2 cbbd 9894 343d 55f0 3fbe
00000010: 5ebc e7be e6a3 1a3f 4860 6abd c98a 24bf
00000020: 7f47 c33d c37a 94be 7faf 17bf 9a98 4ebe
00000030: 4053 863e 49ff bcbd 1203 013f 708e a13e
00000040: 1b6c cb3e 7f98 293e 34fc 9cbe b19c 98be
00000050: 52b4 debc e797 eb3d e878 793d 6f72 87be
00000060: 5e60 623e 9369 b4be c798 6f3e 5288 75bd
00000070: b844 59be 9b75 45be 9d71 6e3e 5177 d3be
00000080: 0653 ccbd

weight_mr f4 [33]
0.361873 -0.1733338 0.05594886 0.32770514 0.72427595 -0.6075161 0.07799175 0.30818954
0.31387955 -0.34687853 0.09086922 0.15927544 0.024627568 0.42410347 0.17091663 0.033638194
-0.039018396 -0.20781498 0.35951123 -0.014658952 0.0011728286 -0.052952077 0.00925103 0.15828212
-0.08729732 -0.17855944 0.7315738 -0.030388972 0.06011728 0.82021666 0.3696481 -0.23236683
0.20705643
00000000: 6b47 b93e 6a7e 31be a22a 653d f8c8 a73e
00000010: 266a 393f 2d86 1bbf 23ba 9f3d 05cb 9d3e
00000020: d2b4 a03e 109a b1be a419 ba3d 1a19 233e
00000030: c1bf c93c 1724 d93e c504 2f3e 34c8 093d
00000040: c1d1 1fbd 73cd 54be db11 b83e 1a2c 70bc
00000050: 99b9 993a 47e4 58bd a291 173c b514 223e
00000060: f0c8 b2bd 49d8 36be 6c48 3b3f 4bf2 f8bc
00000070: 893d 763d b8f9 513f 8442 bd3e 92f1 6dbe
00000080: 9a06 543e

weight_xh f4 [33]
0.10466014 0.15212095 -0.12295264 0.17601207 0.3456576 0.31710654 0.22252473 0.5094306
-0.08947809 -0.53358227 -0.7691389 0.13320959 -0.26153535 -0.024165707 -0.88138556 -0.22734718
-0.15759747 -0.49893183 -0.00087081024 -0.23796944 -0.17644814 -0.3196147 -0.23943949 -0.47140914
0.24375081 0.3017739 0.024497826 -0.04861878 0.13892703 -1.1501539 -0.2031251 0.7365928
0.054675598
00000000: 0e58 d63d 98c5 1b3e 98ce fbbd 823c 343e
00000010: 08fa b03e ca5b a23e 86dd 633e 0b6a 023f
00000020: 4a40 b7bd d998 08bf 49e6 44bf 1868 083e
00000030: f6e7 85be 29f7 c5bc 7ca2 61bf b3cd 68be
00000040: 3b61 21be fe73 ffbe 1647 64ba 43ae 73be
00000050: d2ae 34be 8aa4 a3be a02f 75be 8a5c f1be
00000060: d099 793e 1c82 9a3e aaaf c83c 7c24 47bd
00000070: e342 0e3e 3e38 93bf 0700 50be 5991 3c3f
00000080: 85f3 5f3d

weight_hh f4 [33]
-0.43046185 -0.66818553 -0.86211777 -0.6818175 -0.71154964 0.6932481 -0.5839841 -0.015576921
-0.3826442 0.64357716 1.0632224 -0.7948869 -0.36617967 -1.2017636 -0.29167035 -0.9145882
0.13605194 0.018248154 -1.2444391 -0.72457236 -0.33539706 -0.37349856 -1.0691243 -0.20518357
-1.407423 -0.043923765 -1.0853285 -0.3819722 -0.8144338 1.0709078 -0.65729797 -0.40300465
-1.2531592
00000000: 7f65 dcbe 350e 2bbf c0b3 5cbf 978b 2ebf
00000010: 1e28 36bf b578 313f fb7f 15bf 5836 7fbc
00000020: f1e9 c3be 79c1 243f ac17 883f b57d 4bbf
00000030: e77b bbbe 64d3 99bf d155 95be 7422 6abf
00000040: 3351 0b3e 277d 953c c849 9fbf 937d 39bf
00000050: 2ab9 abbe 343b bfbe 11d9 88bf a41b 52be
00000060: 7026 b4bf 68e9 33bd 0bec 8abf dc91 c3be
00000070: bc7e 50bf 8213 893f ae44 28bf a056 cebe
00000080: 8567 a0bf

weight_mh f4 [33]
0.17236054 -0.076544635 0.056364756 0.4158322 -0.07208928 0.023932764 0.08298375 -0.3193796
-0.1525765 -0.35412228 0.6444947 0.04408029 -0.22391139 0.101381116 -0.07151795 0.046618704
0.26806277 -0.3992681 0.12399571 -0.21114343 -0.27368385 -0.32569835 -0.064293124 -0.23996861
-0.05873957 0.18760905 0.1128657 -0.12587677 -0.015358058 -0.08881021 0.017347049 -0.03436684
-0.12376761
00000000: 487f 303e 6fc3 9cbd bbde 663d f5e7 d43e
00000010: 8ba3 93bd a50e c43c 62f3 a93d b985 a3be
00000020: 043d 1cbe 844f b5be 9bfd 243f 898d 343d
00000030: 0749 65be e7a0 cf3d 0178 92bd 41f3 3e3d
00000040: 863f 893e de6c ccbe 76f1 fd3d fc35 58be
00000050: 4a20 8cbe efc1 a6be 1dac 83bd 55ba 75be
00000060: e798 70bd 961c 403e 2226 e73d d7e5 00be
00000070: 5da0 7bbc 21e2 b5bd 661b 8e3c 3ec4 0cbd
00000080: df79 fdbd

weight_hy f4 [1, 33]
-0.0065413364 0.0005356797 0.0017807267 0.00039677075 0.076152585 1.0240877 1.7401724e-05 0.29202533
-0.009485345 -0.45732492 1.0511551 0.005938489 -0.007354021 -0.0015927703 -0.4371342 0.00048359763
-0.11593938 -0.1392383 0.014639709 -0.0015457651 -0.0010842407 0.0013179177 0.0034542526 0.02911788
-0.046692584 0.012361739 -0.036973964 -0.0029852171 0.0027851872 0.7615584 -0.00034256701 -0.24957305
0.003876459
00000000: b558 d6bb db6c 0c3a 4667 e93a ab05 d039
00000010: e3f5 9b3d 4e15 833f ebf9 9137 5884 953e
00000020: 6c68 1bbc 7e26 eabe 408c 863f a897 c23b
00000030: 00fa f0bb 81c4 d0ba 0ed0 dfbe 608b fd39
00000040: a071 edbd 7c94 0ebe 64db 6f3c 459b caba
00000050: 151d 8eba fbbd ac3a be60 623b 9f88 ee3c
00000060: b940 3fbd e488 4a3c 0372 17bd a2a3 43bb
00000070: b087 363b 7ef5 423f 919a b3b9 1490 7fbe
00000080: 310c 7e3b

bias_dg_x f4 [33]
-0.016011283 0.15527932 -0.06180655 -0.039374463 0.30323952 0.11075486 -0.091065004 -0.05266465
-0.00028858415 -0.094634436 -0.15913251 -0.12008144 -0.108718 -0.01891628 -0.13678478 -0.0039004975
-0.2039676 -0.11770795 0.11644329 -0.000118643045 0.082201935 -0.13696411 -0.007388338 -0.01652857
-0.038077593 -0.097107105 0.3367298 0.099607915 -8.487464e-05 -0.07704998 -0.0007943595 -0.080057085
0.15588333
00000000: 182a 83bc 8b01 1f3e dd28 7dbd 1e47 21bd
00000010: 3642 9b3e 72d3 e23d 4a80 babd e3b6 57bd
00000020: 1c4d 97b9 b3cf c1bd a2f3 22be 42ed f5bd
00000030: 8ba7 debd 50f6 9abc 4f11 0cbe 7d9f 7fbb
00000040: e2dc 50be de10 f1bd d279 ee3d 00d0 f8b8
00000050: 7d59 a83d 5240 0cbe df19 f2bb ec66 87bc
00000060: 40f7 1bbd 17e0 c6bd d967 ac3e 3cff cb3d
00000070: bafe b1b8 61cc 9dbd 903c 50ba f8f4 a3bd
00000080: e19f 1f3e

bias_dg_h f4 [33]
0.39125478 0.7546038 0.7740926 -0.13851768 -0.105326116 -0.5673851 0.95139307 -0.10844711
0.5121419 -0.34781146 -0.12968606 0.8285823 0.49689287 -0.1146762 -0.017255554 -0.118247174
-0.030747104 -0.011253757 -0.1692654 0.69448906 0.30988252 0.14771478 0.94422287 -0.030075818
-0.034047395 -0.14867812 1.1381673 0.56138074 -0.087795496 -0.13377662 0.71233547 -0.17065758
1.1798702
00000000: 8c52 c83e b72d 413f ef2a 463f 94d7 0dbe
00000010: 38b5 d7bd 2640 11bf 7f8e 733f 8519 debd
00000020: bb1b 033f 5814 b2be 6ccc 04be f81d 543f
00000030: be68 fe3e 5bdb eabd 855b 8dbc 932b f2bd
00000040: 5ae1 fbbc ae61 38bc e953 2dbe 09ca 313f
00000050: eca8 9e3e 8b42 173e 97b8 713f 9061 f6bc
00000060: 4875 0bbd 143f 18be 77af 913f a6b6 0f3f
00000070: 20ce b3bd bdfc 08be 9e5b 363f dcc0 2ebe
00000080: fd05 973f

bias_z f4 [33]
-0.9062139 -0.8283211 -0.98604465 -0.4412569 -0.24414636 -2.6465523 -0.9606621 -1.0684633
-0.33784622 -0.8114427 -0.923592 -0.4713162 -0.4221049 -0.11275316 -0.47617444 -0.06604158
-1.4485941 0.06847618 -0.110211395 -0.36302078 -0.4958118 -0.09720436 -0.47441086 0.42980653
0.15297312 0.013094983 -1.0257609 -0.6745961 -0.03816107 -0.6002299 -0.77764064 0.42508462
-1.3369896
00000000: a2fd 67bf da0c 54bf 6c6d 7cbf 6dec e1be
00000010: 8101 7abe 1d61 29c0 f4ed 75bf 68c3 88bf
00000020: 2efa acbe b5ba 4fbf 8670 6cbf 5b50 f1be
00000030: 221e d8be 21eb e6bd 23cd f3be cf40 87bd
00000040: 886b b9bf 3d3d 8c3d 83b6 e1bd dcdd b9be
00000050: 0bdb fdbe 1413 c7bd fbe5 f2be 9a0f dc3e
00000060: fca4 1c3e 578c 563c 224c 83bf 54b2 2cbf
00000070: c84e 1cbd aba8 19bf 7513 47bf b1a4 d93e
00000080: 7a22 abbf

bias_r f4 [33]
0.37677684 0.48845106 0.948446 0.44901386 0.7726674 0.37061557 0.60762715 -0.2591061
0.3368098 0.3104672 1.0400547 0.9799335 0.39992058 1.2067167 -0.031351287 1.0157937
0.18257956 -0.03450419 1.5085686 0.7669719 0.44198683 0.27455482 1.1717577 0.07470552
1.5608695 -0.12792549 1.0959345 0.24585146 0.7771652 1.1159236 0.7034048 0.26858684
1.3331642
00000000: e5e8 c03e 4216 fa3e 5bcd 723f 25e5 e53e
00000010: 88cd 453f 53c1 bd3e 748d 1b3f 8ea9 84be
00000020: 5672 ac3e 8ff5 9e3e 8320 853f ecdc 7a3f
00000030: 64c2 cc3e b175 9a3f 356a 00bd 8705 823f
00000040: 23f6 3a3e 4454 0dbd c718 c13f 4558 443f
00000050: 194c e23e 7392 8c3e 28fc 953f 35ff 983d
00000060: 92ca c73f e6fe 02be 9547 8c3f 7cc0 7b3e
00000070: 4cf4 463f 96d6 8e3f 5612 343f 3784 893e
00000080: 20a5 aa3f

bias_h f4 [33]
-0.008073505 0.005226291 -0.0016620196 0.013450957 0.0006527108 0.070423886 0.008563121 -0.16521256
0.01680602 0.065084025 0.123032525 0.01436618 -0.021311102 -0.0044830195 0.18476635 -0.016743481
0.021482373 0.10806998 0.010726268 -0.02864539 0.042444926 0.036077857 -0.02599099 -0.0037819736
-0.048199236 -0.07711443 -0.09882449 -0.0060050795 0.0069258907 0.031334016 -0.0049501504 -0.18770885
0.0058769565
00000000: bc46 04bc 4e41 ab3b 20d8 d9ba 6761 5c3c
00000010: ae1a 2b3a 663a 903d 554c 0c3c 7b2d 29be
00000020: c7ac 893c c64a 853d 7af8 fb3d 2060 6b3c
00000030: 9f94 aebc 4be6 92bb 6433 3d3e a029 89bc
00000040: cdfb af3c cb53 dd3d 3bbd 2f3c bda9 eabc
00000050: bbda 2d3d 60c6 133d 0feb d4bc fdda 77bb
00000060: 906c 45bd 2cee 9dbd 7f64 cabd 42c6 c4bb
00000070: 95f2 e23b 1958 003d df34 a2bb c036 40be
00000080: 7c93 c03b

zeros f4 [33]
0.0 0.0 0.0 0.0 0.0 0.0 0.0 0.0
0.0 0.0 0.0 0.0 0.0 0.0 0.0 0.0
0.0 0.0 0.0 0.0 0.0 0.0 0.0 0.0
0.0 0.0 0.0 0.0 0.0 0.0 0.0 0.0
0.0
00000000: 0000 0000 0000 0000 0000 0000 0000 0000
00000010: 0000 0000 0000 0000 0000 0000 0000 0000
00000020: 0000 0000 0000 0000 0000 0000 0000 0000
00000030: 0000 0000 0000 0000 0000 0000 0000 0000
00000040: 0000 0000 0000 0000 0000 0000 0000 0000
00000050: 0000 0000 0000 0000 0000 0000 0000 0000
00000060: 0000 0000 0000 0000 0000 0000 0000 0000
00000070: 0000 0000 0000 0000 0000 0000 0000 0000
00000080: 0000 0000

x_mean f4 [33]
0.0012470119 0.0010531292 0.0008004333 0.0005476734 7.033017e-05 0.0017378149 -0.0004328169 0.0009339321
0.0063128523 -0.0031487923 -0.0016243018 0.00021104094 -0.0002977737 8.242797e-05 -0.0002787553 -0.00028556885
0.0026377188 0.0059357025 -0.0001400546 -0.00046306298 0.0018000561 0.0008269935 0.00010563065 -0.003018828
0.0022422853 0.0055518225 0.004661446 -0.00045269492 -9.629897e-05 0.00018411348 -0.001692271 0.0019955817
7.154757e-05
00000000: c772 a33a 2709 8a3a 2bd4 513a bd91 0f3a
00000010: 397e 9338 64c7 e33a b3eb e2b9 1fd3 743a
00000020: 0bdc ce3b f85b 4ebb 86e6 d4ba df4a 5d39
00000030: 821e 9cb9 2edd ac38 e725 92b9 67b8 95b9
00000040: 94dd 2c3b 4880 c23b 9fdb 12b9 43c7 f2b9
00000050: dcef eb3a 98ca 583a 0686 dd38 88d7 45bb
00000060: 4ef3 123b 10ec b53b 0bbf 983b af57 edb9
00000070: 1ef4 c9b8 960e 4139 31cf ddba 4ec8 023b
00000080: cf0b 9638
