code/baselines/saved/grud_mean_grud_para.pt (torch, 7279 bytes, 17 tensors)

weight_dg_x f4 [33]
00000000: 8902 49be cda2 403d 654d 67be 7142 893e
00000010: de97 913e 8f39 b5bd 5c8d 323c d810 01be
00000020: d8e1 c9bd a9d3 d23d f655 ba3e 2000 efbb
00000030: 0774 0cbe 4082 503d 7bc5 b3be 4a45 31be
00000040: df57 c93d 2272 56bd cb34 0bbe 27a1 22be
00000050: d00e 4abc c51a 3fbe 5cda 2dbe 89a3 273d
00000060: 60b5 0c3d 2ae4 90bd 8db0 913e d611 3a3b
00000070: 242e cf3a 7bb1 193e f8ab 453e 80b4 1fbc
00000080: c4af eebd
-0.19629873 0.04703026 -0.22588117 0.26808503 0.28436178 -0.08848869 0.0108979605 -0.12604082
-0.098575294 0.10294277 0.36393708 -0.007293716 -0.13716136 0.050905466 -0.35111603 -0.17311588
0.09831213 -0.05235494 -0.13594358 -0.15881787 -0.012332633 -0.18662556 -0.16977829 0.040927444
0.03435266 -0.07074769 0.2845501 0.0028391979 0.0015806598 0.1500911 0.19303882 -0.009747624
-0.116546184

weight_dg_h f4 [33]
00000000: c655 4cbd 083e 1ebd 391f bd3c 92e7 b9bd
00000010: 5850 9b3d f4b3 ad3d 82ed 473e b4f6 3fbd
00000020: edde 3a3c 964c 7abd 25a2 adbd f2ee ac3c
00000030: 241e 25bd f65a 963d 8a3a 89be 0fa7 02be
00000040: 605b 3f3c d218 adbd b9e9 823c 5470 1a3d
00000050: 0060 a6b8 18a9 5d3d a010 8b3d 79ad b6bd
00000060: 59cd 833d b499 0f3d 0703 c8bd 7b93 8e3e
00000070: c404 53bb ad4f 6c3d 9323 7a3e 09c8 bebb
00000080: 8cb5 34bd
-0.049886487 -0.038633376 0.023086177 -0.09077372 0.07583684 0.08481589 0.19524196 -0.046866134
0.011405689 -0.061108194 -0.08478192 0.021110032 -0.040311947 0.07341568 -0.26802474 -0.1275904
0.0116795 -0.08452 0.015980588 0.03770478 -7.933378e-05 0.05411634 0.0679028 -0.08919806
0.06435651 0.035058692 -0.097662024 0.27846894 -0.0032198885 0.057693172 0.24427633 -0.005822186
-0.04411845

weight_xz f4 [33]
00000000: 7b04 0cbe 234d d53d 07e5 b8bc bfc6 13be
00000010: 6637 023f e43c 523e 08b0 933d 6763 1d3d
00000020: 8e7b 26bd df61 123f eb1c 813f f4f8 87bc
00000030: 5b7a cbbd 7b13 a13e 7dbf 9f3e fb9f f4bc
00000040: a27a 313d 071b e93d 876f b83c 6a75 aabe
00000050: 3aa5 f7bd 4db2 04be c99f 06be afd4 e33e
00000060: e4d9 22bd 5278 c2bd 2e4e a03e 9163 e3bd
00000070: 0e34 10be d150 173f 588c 913d 629b 923c
00000080: 139d 69bd
-0.13673584 0.10415103 -0.022570146 -0.14431284 0.5086578 0.2053104 0.0721131 0.038424876
-0.040645175 0.5718059 1.008695 -0.016598202 -0.09935447 0.31460175 0.3120078 -0.02986144
0.043329842 0.11382108 0.022514118 -0.33292705 -0.12092061 -0.12958641 -0.1314689 0.44498202
-0.039758578 -0.094956055 0.31309646 -0.11102975 -0.14082357 0.5910769 0.071068466 0.017896358
-0.057034563

weight_hz f4 [33]
00000000: 0723 853d fe64 03be 0436 5dbd eb44 0fbd
00000010: 01ec 243f 7cc9 acbe 798a de3c d4fa 893e
00000020: a99c a63d f492 3dbf 7ee5 b2bf 606f 2abe
00000030: 9e7b 893d 8403 443d d7b6 413e acc1 883d
00000040: ec73 c93d 022c 36bc 5b9c dabc e4d7 ffbc
00000050: a104 a4bc 8205 8c3d 8c33 853d 764c b5bd
00000060: 4eeb 373e 2c1b 333e 8e35 cebe 49c5 3cbe
00000070: 40e2 9fbd 8132 3cbe 95a9 c9bd 16cf ee3d
00000080: 8959 b1bd
0.065008216 -0.12831494 -0.05400659 -0.034977835 0.64422613 -0.3374747 0.027165638 0.2694918
0.08135349 -0.7405236 -1.3976285 -0.16644049 0.06713031 0.047854915 0.18917404 0.06677565
0.098365635 -0.011118891 -0.026685884 -0.031230874 -0.020021738 0.06836988 0.065039724 -0.088524744
0.17960855 0.17490834 -0.40275234 -0.18434633 -0.07806826 -0.1837864 -0.09846798 0.11660592
-0.086596556

weight_mz f4 [33]
00000000: 9fd6 e63c 0415 20bd f48e bdbc b9cd 4dbe
00000010: 8f3d 8f3e 29fb e3bd fdb0 24be 5e59 b53e
00000020: 169c 223c 95d5 123f eeb0 163f 0037 08be
00000030: 1325 e9bd eb45 0d3e c11d 553e 41e2 a8bd
00000040: 63e3 52bd d465 7d3d dfd2 e13d 239e a5be
00000050: b506 82bd 8d92 29be abb7 89be c526 f63e
00000060: e283 203e 0831 f0bc 9560 54bc 446a dc3d
00000070: fcd6 8ebe e679 3abe 0d61 af3d 4b89 74be
00000080: b82a 3abd
0.028178511 -0.039082542 -0.023139454 -0.20098008 0.27976653 -0.111318894 -0.1608314 0.35419744
0.009924909 0.5735715 0.58863723 -0.13302231 -0.113840245 0.13796203 0.20812131 -0.082462795
-0.051486384 0.06186469 0.110265486 -0.3234721 -0.063489355 -0.16559811 -0.2689794 0.48076454
0.1567531 -0.029320255 -0.01296248 0.10762456 -0.27898395 -0.18210563 0.08563433 -0.23880498
-0.045450896

weight_xr f4 [33]
00000000: 7c64 19be 8307 093d 2195 ebbd ccd1 6c3d
00000010: 67b8 e1be 12fd 7b3d e102 adbd 8ab7 34be
00000020: faef 753e 585a 5dbf 9427 a8bd 7fdf 9abe
00000030: e2c0 d8bd 0a71 3a3e dfda d03c a6da 1a3e
00000040: e4ea 54be 3eda f1bc a686 0cbf df03 793d
00000050: 268e 80be cc2c 923e ff88 9dbd 318b d33e
00000060: 601d 8b3e 9f88 e1bd 5756 f6bc 8563 94be
00000070: 72db 33bd af4e de3e a7ce 14bd 456d 5e3e
00000080: 3db8 64be
-0.14979738 0.03345443 -0.115030535 0.057817265 -0.44086 0.061520644 -0.08447815 -0.1764814
0.24017325 -0.8646598 -0.08210674 -0.3024864 -0.105836645 0.18207183 0.02549499 0.1512247
-0.20792729 -0.029523011 -0.5489296 0.060794707 -0.2510845 0.28549802 -0.076921456 0.41317132
0.2717085 -0.110123865 -0.030070467 -0.28982177 -0.04391045 0.43419406 -0.03632989 0.2172137
-0.22335906

weight_hr f4 [33]
00000000: 16bd a1be 3ef4 e23d 1248 1d3e 37b1 383d
00000010: 8683 4abe 55db b83c d841 ee3b 43aa 6c3e
00000020: 71a9 19be 3d8a 003e bbdb 1a3f 1c1d a3bd
00000030: b6a0 e5bc 134b 57be b047 7abd 4747 813c
00000040: ce86 9abe 16d1 983d af3c 3fbd 624d 5b3b
00000050: 0d4a 6c3e 1cd8 1c3e 0460 693d 1612 3c3d
00000060: 44e5 b0bd 80d3 b23c 006b 613e f29b 5b3d
00000070: 88f8 56be 2078 2d3f 093f 92bd be99 923d
00000080: 6cd1 a0be
-0.31589574 0.11081742 0.15359524 0.04509088 -0.19776735 0.022565523 0.007271033 0.23111825
-0.15006043 0.12552734 0.6049153 -0.079645365 -0.028030735 -0.21024732 -0.061103523 0.015781058
-0.30180973 0.07461755 -0.04668873 0.0033462872 0.23075123 0.15316814 0.056976333 0.045915686
-0.08637479 0.021829367 0.22013474 0.053615518 -0.20993245 0.6776142 -0.07140929 0.0715823
-0.31409776

weight_mr f4 [33]
00000000: 2327 2dbd c838 323b d38c 6c3e a92d 2e3d
00000010: 8706 af3e 8ae8 c6bd bb75 343e 8f8e d83d
00000020: 0014 5e3e 513a ebbd ab27 1d3f db9a afbe
00000030: 7699 51be ad2a 123f a330 a93d bd23 c03d
00000040: d121 293e 2f40 073d 4c37 abbe c6e5 b73d
00000050: c9f5 acbe 3825 053e cc64 273e 18f2 11bc
00000060: bb9b 993e 746e 0fbe b3f0 913e ce80 413e
00000070: 2f9c 333e bcae d03e b7a5 413e c01d 843c
00000080: 51a0 06be
-0.04227365 0.0027194489 0.23100595 0.042524014 0.34184667 -0.09712322 0.17623036 0.10574066
0.21687317 -0.11485732 0.61388654 -0.34297833 -0.20468697 0.5709637 0.0826123 0.093818165
0.16516806 0.033020195 -0.33440626 0.08979373 -0.3378127 0.13002479 0.16347045 -0.008907817
0.30001625 -0.14006978 0.2850395 0.18896791 0.17540048 0.40758312 0.18910871 0.016127467
-0.13147093

weight_xh f4 [33]
00000000: e36d 0b3e 0501 ebbd 5a5b 8bbe 58e8 c43d
00000010: cdb3 8bbe 35e6 f73d f8f5 db3d 4692 98be
00000020: 0bb8 99be d46b f63e 4595 4b3f 26ab 4e3e
00000030: e3cc 523e d4c8 86be f765 0cbf 46e2 30be
00000040: 7741 8b3c 901f 8fbc 0fb5 6dbe 3f66 3dbe
00000050: ac00 99be 1e4a a73d 76d1 553c d89e db3e
00000060: 6149 c5bd 5767 83bb c18c 383e 706f 0f3e
00000070: c7e6 20be c0c9 393f 6bea 17bd 9643 a63d
00000080: 6ccb 5d3e
0.13616137 -0.11474804 -0.27218133 0.096146286 -0.27285615 0.121044554 0.10740274 -0.29799098
-0.30023226 0.4812914 0.7952464 0.20182475 0.2058597 -0.26325095 -0.54843086 -0.17273816
0.01699899 -0.017471105 -0.232136 -0.18496035 -0.29883325 0.081684336 0.013050428 0.42894626
-0.096331365 -0.004010122 0.18022443 0.14007354 -0.15713035 0.7257347 -0.037088793 0.0811836
0.2165963

weight_hh f4 [33]
00000000: d271 493e 5ccb c33e b956 b93e 3d7c 86bd
00000010: 363b 1a3f 3449 473c a467 b1be c80d 473e
00000020: 46a0 eebd ab0a 793f c9f7 5e3f 9d64 913d
00000030: 183c c2bd 88a5 ac3e 97ce 5b3e e980 3dbe
00000040: 0038 963e 7b79 3dbe 3f74 0cbe f191 39be
00000050: acaa ad3e 5553 21be daa0 783e 7160 0b3d
00000060: 4623 07be 2ebd 483c dbce 9a3e 4f8b f5bd
00000070: eea1 843d 1d36 0f3f bfb7 35be ec51 9f3e
00000080: b033 8a3e
0.19672325 0.38241088 0.36198977 -0.06566665 0.602466 0.012163449 -0.34649384 0.19438851
-0.116516635 0.97281903 0.8709684 0.070992686 -0.09484118 0.3372004 0.21465527 -0.18506207
0.293396 -0.18503372 -0.1371622 -0.18122078 0.33919275 -0.15754445 0.2428011 0.03402752
-0.1319705 0.012252135 0.30235943 -0.11989462 0.06476198 0.55941945 -0.17745875 0.3111719
0.2699256

weight_mh f4 [33]
00000000: b7a3 74be d492 463e a41e b5bd 8e45 8bbd
00000010: 142d 233e 65d2 8fbc fceb e8bb 7042 d63e
00000020: 1bd6 fbbd 41d7 e63e cf27 c7be 9775 4abe
00000030: 34aa babc dcf2 a3be 8cb6 463e 4317 3d3c
00000040: 0267 4cbe 6049 d8bd 9138 6abe baa8 363e
00000050: 3765 01be e037 993d 3613 3f3e e6bb bb3e
00000060: 8198 25be e22b 80bd ba92 903d fb21 733d
00000070: 8756 643e 3ebc 6a3e e664 bb3d e718 713c
00000080: 589f 1e3e
-0.23890577 0.19391948 -0.08843735 -0.06800376 0.15935165 -0.017556379 -0.0071082097 0.41847563
-0.12296697 0.450861 -0.3889756 -0.1977142 -0.022786237 -0.32021224 0.19405574 0.011541191
-0.1996117 -0.1056087 -0.22873141 0.17837802 -0.12636267 0.074813604 0.18659672 0.36666793
-0.16171457 -0.0625837 0.07059236 0.05935858 0.22298633 0.22923371 0.09150104 0.01471541
0.15490472

weight_hy f4 [1, 33]
00000000: 9e08 643e e9f6 9fbe 5e6a 86be ae67 c1bc
00000010: 3f3c cebe b49a 303d ae2d 0c3b f796 b3be
00000020: a25b f8bd c601 fd3e 1dc8 66bf 55e0 2e3e
00000030: 0bc0 9cbd 77a6 cb3e 6a40 c2be f260 0b3d
00000040: 2e67 bb3e 812f 323c a36d d83d 762b ffbc
00000050: f494 5cbe 57fc 7c3b ae7b 4dbe db13 9bbe
00000060: 87f3 5abd 476f 45be ae7d 27be 76dc 24bc
00000070: c45b 5abe 849a fbbe a4a0 b2bb 8dd6 3bbe
00000080: 87e2 ad3e
0.22268912 -0.31243065 -0.26253027 -0.023609009 -0.4028034 0.043116286 0.0021389532 -0.35076115
-0.121268526 0.49415416 -0.901491 0.17077763 -0.07653817 0.3977544 -0.3793977 0.034028
0.36602157 0.010875584 0.105677865 -0.031148653 -0.21541196 0.0038602555 -0.20066711 -0.30288586
-0.053454902 -0.1928073 -0.16356537 -0.010062328 -0.21324068 -0.49141324 -0.0054512788 -0.18343563
0.3396189

bias_dg_x f4 [33]
00000000: b5e5 ab3e e715 dcbd 7e19 c63e 9d8d 793b
00000010: 0007 80bd 73d5 d5bd 531a 40bd 640d 2dbd
00000020: 9499 3fb7 67e8 55be 306b 2fbd d353 c1bd
00000030: 5e7f d73d 21e4 363e 20d7 693d 1eae e2bd
00000040: a961 5cbe 206c 04be a0ab fabc 6683 07be
00000050: 6ae5 cbbd 689a 7f3c b05f 45bd 53e3 0c3e
00000060: c251 31be 00ea bcb9 5563 e0bd 6e94 a1bc
00000070: 0cb8 2fbd 091d 39bc 31cf 963e ed19 2ab9
00000080: 45ea 34ba
0.3357369 -0.10746365 0.38691324 0.0038078793 -0.06251335 -0.10441103 -0.046900105 -0.0422491
-1.1420245e-05 -0.20889436 -0.04282683 -0.09439816 0.1052234 0.17860462 0.057089925 -0.110683665
-0.2152163 -0.12931871 -0.030599415 -0.13233718 -0.09955867 0.015600778 -0.048186958 0.13758592
-0.17316344 -0.00036032498 -0.10956446 -0.019724097 -0.04290013 -0.011298426 0.2945495 -0.00016222121
-0.0006901364

bias_dg_h f4 [33]
00000000: 3a9a 53bd 781e fabc 4261 94bd b9fb 2bbe
00000010: 0e7d 1dbe 2ff3 33be fbb3 843e 89ea 2ebe
00000020: 7c4f 2dbd 19ab a9bb d0fd 8cbc b044 48bd
00000030: 32ff 0ebe a722 24be 5136 13bb 4c1f 25bd
00000040: f135 e4bd 0095 d83d 734f 19bd b5f8 30be
00000050: 62ed 24be 2499 24be 9d85 11be fe33 acbd
00000060: ab7f 583e a8be dfbd f0e1 24be 50e8 213e
00000070: 9ec8 5ebd 5d86 fabd b90f 493e 3363 c8bb
00000080: 76a8 fabd
-0.051660754 -0.030532107 -0.07245113 -0.16795243 -0.15379736 -0.17573236 0.25918564 -0.17081656
-0.04231213 -0.005177867 -0.017210871 -0.04889363 -0.13964537 -0.16028844 -0.0022462795 -0.04031305
-0.11143101 0.105752945 -0.037429284 -0.17282374 -0.1610618 -0.16074044 -0.14211126 -0.08408354
0.21142451 -0.10925037 -0.16101813 0.15811276 -0.054390542 -0.12232659 0.19634904 -0.006115341
-0.122391626

bias_z f4 [33]
00000000: 3633 cabe 4f8c dfbd b85e 09be 2cb5 fa3c
00000010: 12f3 49bf 2a98 33be c9f3 73be 412b b2be
00000020: 942d 053e 32ba 39bf 9276 58bf 9591 dcbd
00000030: 29ba 1b3e 4914 d5bd 261b eb3d 2faa 46be
00000040: 6dc0 92be 68f6 d2bd c8a7 703e 6fcc 85be
00000050: ecd1 b33d 0a36 02bd be50 693e 9306 4d3e
00000060: c16e 65be a138 703e 3fc7 e2be adf5 51be
00000070: 712a 8cbd 40fb 71be 483c 803d cbf0 803e
00000080: ef9e 183e
-0.39492196 -0.109154336 -0.13415039 0.030603968 -0.7888652 -0.17538515 -0.23823465 -0.34798625
0.13005668 -0.72549736 -0.84555924 -0.10769955 0.15207733 -0.1040426 0.114797875 -0.19400857
-0.28662434 -0.103009045 0.23501503 -0.26132533 0.08780274 -0.031789817 0.22784707 0.20022039
-0.2240553 0.23459102 -0.44292638 -0.20503874 -0.068440326 -0.23631 0.06261498 0.2518371
0.14904378

bias_r f4 [33]
00000000: 2eb9 873d b9c6 a43e a148 7b3e e065 013e
00000010: 3bf6 433f ce82 1cbe efe3 533e 0fa1 433e
00000020: 359a 3cbe 2fb9 633f 3d4e 443f 720e 0a3e
00000030: ca0c 6c3e 7f07 363e d937 453d 667f 823d
00000040: f62f 593e dac4 973e 7294 f4bd f8e0 2abe
00000050: 2ead 6e3e 21ea ab3d ff76 833e a815 19be
00000060: 0d88 dfbd 1fef ae3d d65d af3e 2a50 373e
00000070: 0307 4dbc afb3 7b3e be80 82bd aaba 8d3e
00000080: 940f 763d
0.06627117 0.32182863 0.24539424 0.12636518 0.7654759 -0.15284273 0.20692419 0.19104408
-0.184182 0.8895444 0.7668188 0.13482073 0.23051754 0.17776297 0.048148964 0.063719556
0.21209702 0.29642373 -0.11942376 -0.16687381 0.2330825 0.08394266 0.25676724 -0.14949667
-0.109146215 0.085417025 0.3425128 0.17901674 -0.012513879 0.24580263 -0.06372212 0.27681476
0.06007345

bias_h f4 [33]
00000000: 7170 98be 4524 8f3e bbc0 143e a832 563d
00000010: bd64 2f3e 962d ef3c ca65 033c 0ab6 923e
00000020: bfbc 083d d868 98bd 8e9d 1f3c a846 d3bd
00000030: b7bc 083d 77a3 59be 5230 b03d c3ee abbc
00000040: 3d33 40be f59a 7e3d a2ed d3bd daad 1f3d
00000050: c065 983e 6495 8bbc fd0b b33e f651 3a3e
00000060: e2d7 e03d 2059 7c3e 6e13 5b3e 56cd 943b
00000070: c276 313e 7fbf dc3d 12bc d23b ad55 973e
00000080: b1bb 69be
-0.29773286 0.2795736 0.14526646 0.052294403 0.17128272 0.029196542 0.008019874 0.2865451
0.033383127 -0.07441872 0.009742154 -0.10316211 0.033383097 -0.21253763 0.08602966 -0.020987874
-0.18769546 0.062159497 -0.10348059 0.038984157 0.2976513 -0.017039008 0.34970084 0.18195328
0.109786764 0.24643373 0.2139413 0.0045410795 0.17330459 0.107787125 0.006431111 0.29557553
-0.22825505
